{"format": "layers-model", "generatedBy": "keras v2.5.0", "convertedBy": "TensorFlow.js Converter v3.6.0", "modelTopology": {"keras_version": "2.5.0", "backend": "tensorflow", "model_config": {"class_name": "Functional", "config": {"name": "3D_ResNet50", "layers": [{"class_name": "InputLayer", "config": {"batch_input_shape": [null, 128, 128, 64, 1], "dtype": "float32", "sparse": false, "ragged": false, "name": "input_7"}, "name": "input_7", "inbound_nodes": []}, {"class_name": "ZeroPadding3D", "config": {"name": "zero_padding3d_6", "trainable": true, "dtype": "float32", "padding": [[3, 3], [3, 3], [3, 3]], "data_format": "channels_last"}, "name": "zero_padding3d_6", "inbound_nodes": [[["input_7", 0, 0, {}]]]}, {"class_name": "Conv3D", "config": {"name": "conv1", "trainable": true, "dtype": "float32", "filters": 64, "kernel_size": [7, 7, 7], "strides": [2, 2, 2], "padding": "valid", "data_format": "channels_last", "dilation_rate": [1, 1, 1], "groups": 1, "activation": "linear", "use_bias": true, "kernel_initializer": {"class_name": "HeUniform", "config": {"seed": null}}, "bias_initializer": {"class_name": "Zeros", "config": {}}, "kernel_regularizer": null, "bias_regularizer": null, "activity_regularizer": null, "kernel_constraint": null, "bias_constraint": null}, "name": "conv1", "inbound_nodes": [[["zero_padding3d_6", 0, 0, {}]]]}, {"class_name": "BatchNormalization", "config": {"name": "bn_conv1", "trainable": true, "dtype": "float32", "axis": [3], "momentum": 0.99, "epsilon": 0.001, "center": true, "scale": true, "beta_initializer": {"class_name": "Zeros", "config": {}}, "gamma_initializer": {"class_name": "Ones", "config": {}}, "moving_mean_initializer": {"class_name": "Zeros", "config": {}}, "moving_variance_initializer": {"class_name": "Ones", "config": {}}, "beta_regularizer": null, "gamma_regularizer": null, "beta_constraint": null, "gamma_constraint": null}, "name": "bn_conv1", "inbound_nodes": [[["conv1", 0, 0, {}]]]}, {"class_name": "Activation", "config": {"name": "activation_294", "trainable": true, "dtype": "float32", "activation": "relu"}, "name": "activation_294", "inbound_nodes": [[["bn_conv1", 0, 0, {}]]]}, {"class_name": "MaxPooling3D", "config": {"name": "max_pooling3d_16", "trainable": true, "dtype": "float32", "pool_size": [3, 3, 3], "padding": "valid", "strides": [2, 2, 2], "data_format": "channels_last"}, "name": "max_pooling3d_16", "inbound_nodes": [[["activation_294", 0, 0, {}]]]}, {"class_name": "Conv3D", "config": {"name": "res2a_branch2a", "trainable": true, "dtype": "float32", "filters": 64, "kernel_size": [1, 1, 1], "strides": [1, 1, 1], "padding": "valid", "data_format": "channels_last", "dilation_rate": [1, 1, 1], "groups": 1, "activation": "linear", "use_bias": true, "kernel_initializer": {"class_name": "HeUniform", "config": {"seed": null}}, "bias_initializer": {"class_name": "Zeros", "config": {}}, "kernel_regularizer": null, "bias_regularizer": null, "activity_regularizer": null, "kernel_constraint": null, "bias_constraint": null}, "name": "res2a_branch2a", "inbound_nodes": [[["max_pooling3d_16", 0, 0, {}]]]}, {"class_name": "BatchNormalization", "config": {"name": "bn2a_branch2a", "trainable": true, "dtype": "float32", "axis": [3], "momentum": 0.99, "epsilon": 0.001, "center": true, "scale": true, "beta_initializer": {"class_name": "Zeros", "config": {}}, "gamma_initializer": {"class_name": "Ones", "config": {}}, "moving_mean_initializer": {"class_name": "Zeros", "config": {}}, "moving_variance_initializer": {"class_name": "Ones", "config": {}}, "beta_regularizer": null, "gamma_regularizer": null, "beta_constraint": null, "gamma_constraint": null}, "name": "bn2a_branch2a", "inbound_nodes": [[["res2a_branch2a", 0, 0, {}]]]}, {"class_name": "Activation", "config": {"name": "activation_295", "trainable": true, "dtype": "float32", "activation": "relu"}, "name": "activation_295", "inbound_nodes": [[["bn2a_branch2a", 0, 0, {}]]]}, {"class_name": "Conv3D", "config": {"name": "res2a_branch2b", "trainable": true, "dtype": "float32", "filters": 64, "kernel_size": [3, 3, 3], "strides": [1, 1, 1], "padding": "same", "data_format": "channels_last", "dilation_rate": [1, 1, 1], "groups": 1, "activation": "linear", "use_bias": true, "kernel_initializer": {"class_name": "HeUniform", "config": {"seed": null}}, "bias_initializer": {"class_name": "Zeros", "config": {}}, "kernel_regularizer": null, "bias_regularizer": null, "activity_regularizer": null, "kernel_constraint": null, "bias_constraint": null}, "name": "res2a_branch2b", "inbound_nodes": [[["activation_295", 0, 0, {}]]]}, {"class_name": "BatchNormalization", "config": {"name": "bn2a_branch2b", "trainable": true, "dtype": "float32", "axis": [3], "momentum": 0.99, "epsilon": 0.001, "center": true, "scale": true, "beta_initializer": {"class_name": "Zeros", "config": {}}, "gamma_initializer": {"class_name": "Ones", "config": {}}, "moving_mean_initializer": {"class_name": "Zeros", "config": {}}, "moving_variance_initializer": {"class_name": "Ones", "config": {}}, "beta_regularizer": null, "gamma_regularizer": null, "beta_constraint": null, "gamma_constraint": null}, "name": "bn2a_branch2b", "inbound_nodes": [[["res2a_branch2b", 0, 0, {}]]]}, {"class_name": "Activation", "config": {"name": "activation_296", "trainable": true, "dtype": "float32", "activation": "relu"}, "name": "activation_296", "inbound_nodes": [[["bn2a_branch2b", 0, 0, {}]]]}, {"class_name": "Conv3D", "config": {"name": "res2a_branch2c", "trainable": true, "dtype": "float32", "filters": 256, "kernel_size": [1, 1, 1], "strides": [1, 1, 1], "padding": "valid", "data_format": "channels_last", "dilation_rate": [1, 1, 1], "groups": 1, "activation": "linear", "use_bias": true, "kernel_initializer": {"class_name": "HeUniform", "config": {"seed": null}}, "bias_initializer": {"class_name": "Zeros", "config": {}}, "kernel_regularizer": null, "bias_regularizer": null, "activity_regularizer": null, "kernel_constraint": null, "bias_constraint": null}, "name": "res2a_branch2c", "inbound_nodes": [[["activation_296", 0, 0, {}]]]}, {"class_name": "Conv3D", "config": {"name": "res2a_branch1", "trainable": true, "dtype": "float32", "filters": 256, "kernel_size": [1, 1, 1], "strides": [1, 1, 1], "padding": "valid", "data_format": "channels_last", "dilation_rate": [1, 1, 1], "groups": 1, "activation": "linear", "use_bias": true, "kernel_initializer": {"class_name": "HeUniform", "config": {"seed": null}}, "bias_initializer": {"class_name": "Zeros", "config": {}}, "kernel_regularizer": null, "bias_regularizer": null, "activity_regularizer": null, "kernel_constraint": null, "bias_constraint": null}, "name": "res2a_branch1", "inbound_nodes": [[["max_pooling3d_16", 0, 0, {}]]]}, {"class_name": "BatchNormalization", "config": {"name": "bn2a_branch2c", "trainable": true, "dtype": "float32", "axis": [3], "momentum": 0.99, "epsilon": 0.001, "center": true, "scale": true, "beta_initializer": {"class_name": "Zeros", "config": {}}, "gamma_initializer": {"class_name": "Ones", "config": {}}, "moving_mean_initializer": {"class_name": "Zeros", "config": {}}, "moving_variance_initializer": {"class_name": "Ones", "config": {}}, "beta_regularizer": null, "gamma_regularizer": null, "beta_constraint": null, "gamma_constraint": null}, "name": "bn2a_branch2c", "inbound_nodes": [[["res2a_branch2c", 0, 0, {}]]]}, {"class_name": "BatchNormalization", "config": {"name": "bn2a_branch1", "trainable": true, "dtype": "float32", "axis": [3], "momentum": 0.99, "epsilon": 0.001, "center": true, "scale": true, "beta_initializer": {"class_name": "Zeros", "config": {}}, "gamma_initializer": {"class_name": "Ones", "config": {}}, "moving_mean_initializer": {"class_name": "Zeros", "config": {}}, "moving_variance_initializer": {"class_name": "Ones", "config": {}}, "beta_regularizer": null, "gamma_regularizer": null, "beta_constraint": null, "gamma_constraint": null}, "name": "bn2a_branch1", "inbound_nodes": [[["res2a_branch1", 0, 0, {}]]]}, {"class_name": "Add", "config": {"name": "add_96", "trainable": true, "dtype": "float32"}, "name": "add_96", "inbound_nodes": [[["bn2a_branch2c", 0, 0, {}], ["bn2a_branch1", 0, 0, {}]]]}, {"class_name": "Activation", "config": {"name": "activation_297", "trainable": true, "dtype": "float32", "activation": "relu"}, "name": "activation_297", "inbound_nodes": [[["add_96", 0, 0, {}]]]}, {"class_name": "Conv3D", "config": {"name": "res2b_branch2a", "trainable": true, "dtype": "float32", "filters": 64, "kernel_size": [1, 1, 1], "strides": [1, 1, 1], "padding": "valid", "data_format": "channels_last", "dilation_rate": [1, 1, 1], "groups": 1, "activation": "linear", "use_bias": true, "kernel_initializer": {"class_name": "HeUniform", "config": {"seed": null}}, "bias_initializer": {"class_name": "Zeros", "config": {}}, "kernel_regularizer": null, "bias_regularizer": null, "activity_regularizer": null, "kernel_constraint": null, "bias_constraint": null}, "name": "res2b_branch2a", "inbound_nodes": [[["activation_297", 0, 0, {}]]]}, {"class_name": "BatchNormalization", "config": {"name": "bn2b_branch2a", "trainable": true, "dtype": "float32", "axis": [3], "momentum": 0.99, "epsilon": 0.001, "center": true, "scale": true, "beta_initializer": {"class_name": "Zeros", "config": {}}, "gamma_initializer": {"class_name": "Ones", "config": {}}, "moving_mean_initializer": {"class_name": "Zeros", "config": {}}, "moving_variance_initializer": {"class_name": "Ones", "config": {}}, "beta_regularizer": null, "gamma_regularizer": null, "beta_constraint": null, "gamma_constraint": null}, "name": "bn2b_branch2a", "inbound_nodes": [[["res2b_branch2a", 0, 0, {}]]]}, {"class_name": "Activation", "config": {"name": "activation_298", "trainable": true, "dtype": "float32", "activation": "relu"}, "name": "activation_298", "inbound_nodes": [[["bn2b_branch2a", 0, 0, {}]]]}, {"class_name": "Conv3D", "config": {"name": "res2b_branch2b", "trainable": true, "dtype": "float32", "filters": 64, "kernel_size": [3, 3, 3], "strides": [1, 1, 1], "padding": "same", "data_format": "channels_last", "dilation_rate": [1, 1, 1], "groups": 1, "activation": "linear", "use_bias": true, "kernel_initializer": {"class_name": "HeUniform", "config": {"seed": null}}, "bias_initializer": {"class_name": "Zeros", "config": {}}, "kernel_regularizer": null, "bias_regularizer": null, "activity_regularizer": null, "kernel_constraint": null, "bias_constraint": null}, "name": "res2b_branch2b", "inbound_nodes": [[["activation_298", 0, 0, {}]]]}, {"class_name": "BatchNormalization", "config": {"name": "bn2b_branch2b", "trainable": true, "dtype": "float32", "axis": [3], "momentum": 0.99, "epsilon": 0.001, "center": true, "scale": true, "beta_initializer": {"class_name": "Zeros", "config": {}}, "gamma_initializer": {"class_name": "Ones", "config": {}}, "moving_mean_initializer": {"class_name": "Zeros", "config": {}}, "moving_variance_initializer": {"class_name": "Ones", "config": {}}, "beta_regularizer": null, "gamma_regularizer": null, "beta_constraint": null, "gamma_constraint": null}, "name": "bn2b_branch2b", "inbound_nodes": [[["res2b_branch2b", 0, 0, {}]]]}, {"class_name": "Activation", "config": {"name": "activation_299", "trainable": true, "dtype": "float32", "activation": "relu"}, "name": "activation_299", "inbound_nodes": [[["bn2b_branch2b", 0, 0, {}]]]}, {"class_name": "Conv3D", "config": {"name": "res2b_branch2c", "trainable": true, "dtype": "float32", "filters": 256, "kernel_size": [1, 1, 1], "strides": [1, 1, 1], "padding": "valid", "data_format": "channels_last", "dilation_rate": [1, 1, 1], "groups": 1, "activation": "linear", "use_bias": true, "kernel_initializer": {"class_name": "HeUniform", "config": {"seed": null}}, "bias_initializer": {"class_name": "Zeros", "config": {}}, "kernel_regularizer": null, "bias_regularizer": null, "activity_regularizer": null, "kernel_constraint": null, "bias_constraint": null}, "name": "res2b_branch2c", "inbound_nodes": [[["activation_299", 0, 0, {}]]]}, {"class_name": "BatchNormalization", "config": {"name": "bn2b_branch2c", "trainable": true, "dtype": "float32", "axis": [3], "momentum": 0.99, "epsilon": 0.001, "center": true, "scale": true, "beta_initializer": {"class_name": "Zeros", "config": {}}, "gamma_initializer": {"class_name": "Ones", "config": {}}, "moving_mean_initializer": {"class_name": "Zeros", "config": {}}, "moving_variance_initializer": {"class_name": "Ones", "config": {}}, "beta_regularizer": null, "gamma_regularizer": null, "beta_constraint": null, "gamma_constraint": null}, "name": "bn2b_branch2c", "inbound_nodes": [[["res2b_branch2c", 0, 0, {}]]]}, {"class_name": "Add", "config": {"name": "add_97", "trainable": true, "dtype": "float32"}, "name": "add_97", "inbound_nodes": [[["bn2b_branch2c", 0, 0, {}], ["activation_297", 0, 0, {}]]]}, {"class_name": "Activation", "config": {"name": "activation_300", "trainable": true, "dtype": "float32", "activation": "relu"}, "name": "activation_300", "inbound_nodes": [[["add_97", 0, 0, {}]]]}, {"class_name": "Conv3D", "config": {"name": "res2c_branch2a", "trainable": true, "dtype": "float32", "filters": 64, "kernel_size": [1, 1, 1], "strides": [1, 1, 1], "padding": "valid", "data_format": "channels_last", "dilation_rate": [1, 1, 1], "groups": 1, "activation": "linear", "use_bias": true, "kernel_initializer": {"class_name": "HeUniform", "config": {"seed": null}}, "bias_initializer": {"class_name": "Zeros", "config": {}}, "kernel_regularizer": null, "bias_regularizer": null, "activity_regularizer": null, "kernel_constraint": null, "bias_constraint": null}, "name": "res2c_branch2a", "inbound_nodes": [[["activation_300", 0, 0, {}]]]}, {"class_name": "BatchNormalization", "config": {"name": "bn2c_branch2a", "trainable": true, "dtype": "float32", "axis": [3], "momentum": 0.99, "epsilon": 0.001, "center": true, "scale": true, "beta_initializer": {"class_name": "Zeros", "config": {}}, "gamma_initializer": {"class_name": "Ones", "config": {}}, "moving_mean_initializer": {"class_name": "Zeros", "config": {}}, "moving_variance_initializer": {"class_name": "Ones", "config": {}}, "beta_regularizer": null, "gamma_regularizer": null, "beta_constraint": null, "gamma_constraint": null}, "name": "bn2c_branch2a", "inbound_nodes": [[["res2c_branch2a", 0, 0, {}]]]}, {"class_name": "Activation", "config": {"name": "activation_301", "trainable": true, "dtype": "float32", "activation": "relu"}, "name": "activation_301", "inbound_nodes": [[["bn2c_branch2a", 0, 0, {}]]]}, {"class_name": "Conv3D", "config": {"name": "res2c_branch2b", "trainable": true, "dtype": "float32", "filters": 64, "kernel_size": [3, 3, 3], "strides": [1, 1, 1], "padding": "same", "data_format": "channels_last", "dilation_rate": [1, 1, 1], "groups": 1, "activation": "linear", "use_bias": true, "kernel_initializer": {"class_name": "HeUniform", "config": {"seed": null}}, "bias_initializer": {"class_name": "Zeros", "config": {}}, "kernel_regularizer": null, "bias_regularizer": null, "activity_regularizer": null, "kernel_constraint": null, "bias_constraint": null}, "name": "res2c_branch2b", "inbound_nodes": [[["activation_301", 0, 0, {}]]]}, {"class_name": "BatchNormalization", "config": {"name": "bn2c_branch2b", "trainable": true, "dtype": "float32", "axis": [3], "momentum": 0.99, "epsilon": 0.001, "center": true, "scale": true, "beta_initializer": {"class_name": "Zeros", "config": {}}, "gamma_initializer": {"class_name": "Ones", "config": {}}, "moving_mean_initializer": {"class_name": "Zeros", "config": {}}, "moving_variance_initializer": {"class_name": "Ones", "config": {}}, "beta_regularizer": null, "gamma_regularizer": null, "beta_constraint": null, "gamma_constraint": null}, "name": "bn2c_branch2b", "inbound_nodes": [[["res2c_branch2b", 0, 0, {}]]]}, {"class_name": "Activation", "config": {"name": "activation_302", "trainable": true, "dtype": "float32", "activation": "relu"}, "name": "activation_302", "inbound_nodes": [[["bn2c_branch2b", 0, 0, {}]]]}, {"class_name": "Conv3D", "config": {"name": "res2c_branch2c", "trainable": true, "dtype": "float32", "filters": 256, "kernel_size": [1, 1, 1], "strides": [1, 1, 1], "padding": "valid", "data_format": "channels_last", "dilation_rate": [1, 1, 1], "groups": 1, "activation": "linear", "use_bias": true, "kernel_initializer": {"class_name": "HeUniform", "config": {"seed": null}}, "bias_initializer": {"class_name": "Zeros", "config": {}}, "kernel_regularizer": null, "bias_regularizer": null, "activity_regularizer": null, "kernel_constraint": null, "bias_constraint": null}, "name": "res2c_branch2c", "inbound_nodes": [[["activation_302", 0, 0, {}]]]}, {"class_name": "BatchNormalization", "config": {"name": "bn2c_branch2c", "trainable": true, "dtype": "float32", "axis": [3], "momentum": 0.99, "epsilon": 0.001, "center": true, "scale": true, "beta_initializer": {"class_name": "Zeros", "config": {}}, "gamma_initializer": {"class_name": "Ones", "config": {}}, "moving_mean_initializer": {"class_name": "Zeros", "config": {}}, "moving_variance_initializer": {"class_name": "Ones", "config": {}}, "beta_regularizer": null, "gamma_regularizer": null, "beta_constraint": null, "gamma_constraint": null}, "name": "bn2c_branch2c", "inbound_nodes": [[["res2c_branch2c", 0, 0, {}]]]}, {"class_name": "Add", "config": {"name": "add_98", "trainable": true, "dtype": "float32"}, "name": "add_98", "inbound_nodes": [[["bn2c_branch2c", 0, 0, {}], ["activation_300", 0, 0, {}]]]}, {"class_name": "Activation", "config": {"name": "activation_303", "trainable": true, "dtype": "float32", "activation": "relu"}, "name": "activation_303", "inbound_nodes": [[["add_98", 0, 0, {}]]]}, {"class_name": "Conv3D", "config": {"name": "res3a_branch2a", "trainable": true, "dtype": "float32", "filters": 128, "kernel_size": [1, 1, 1], "strides": [2, 2, 2], "padding": "valid", "data_format": "channels_last", "dilation_rate": [1, 1, 1], "groups": 1, "activation": "linear", "use_bias": true, "kernel_initializer": {"class_name": "HeUniform", "config": {"seed": null}}, "bias_initializer": {"class_name": "Zeros", "config": {}}, "kernel_regularizer": null, "bias_regularizer": null, "activity_regularizer": null, "kernel_constraint": null, "bias_constraint": null}, "name": "res3a_branch2a", "inbound_nodes": [[["activation_303", 0, 0, {}]]]}, {"class_name": "BatchNormalization", "config": {"name": "bn3a_branch2a", "trainable": true, "dtype": "float32", "axis": [3], "momentum": 0.99, "epsilon": 0.001, "center": true, "scale": true, "beta_initializer": {"class_name": "Zeros", "config": {}}, "gamma_initializer": {"class_name": "Ones", "config": {}}, "moving_mean_initializer": {"class_name": "Zeros", "config": {}}, "moving_variance_initializer": {"class_name": "Ones", "config": {}}, "beta_regularizer": null, "gamma_regularizer": null, "beta_constraint": null, "gamma_constraint": null}, "name": "bn3a_branch2a", "inbound_nodes": [[["res3a_branch2a", 0, 0, {}]]]}, {"class_name": "Activation", "config": {"name": "activation_304", "trainable": true, "dtype": "float32", "activation": "relu"}, "name": "activation_304", "inbound_nodes": [[["bn3a_branch2a", 0, 0, {}]]]}, {"class_name": "Conv3D", "config": {"name": "res3a_branch2b", "trainable": true, "dtype": "float32", "filters": 128, "kernel_size": [3, 3, 3], "strides": [1, 1, 1], "padding": "same", "data_format": "channels_last", "dilation_rate": [1, 1, 1], "groups": 1, "activation": "linear", "use_bias": true, "kernel_initializer": {"class_name": "HeUniform", "config": {"seed": null}}, "bias_initializer": {"class_name": "Zeros", "config": {}}, "kernel_regularizer": null, "bias_regularizer": null, "activity_regularizer": null, "kernel_constraint": null, "bias_constraint": null}, "name": "res3a_branch2b", "inbound_nodes": [[["activation_304", 0, 0, {}]]]}, {"class_name": "BatchNormalization", "config": {"name": "bn3a_branch2b", "trainable": true, "dtype": "float32", "axis": [3], "momentum": 0.99, "epsilon": 0.001, "center": true, "scale": true, "beta_initializer": {"class_name": "Zeros", "config": {}}, "gamma_initializer": {"class_name": "Ones", "config": {}}, "moving_mean_initializer": {"class_name": "Zeros", "config": {}}, "moving_variance_initializer": {"class_name": "Ones", "config": {}}, "beta_regularizer": null, "gamma_regularizer": null, "beta_constraint": null, "gamma_constraint": null}, "name": "bn3a_branch2b", "inbound_nodes": [[["res3a_branch2b", 0, 0, {}]]]}, {"class_name": "Activation", "config": {"name": "activation_305", "trainable": true, "dtype": "float32", "activation": "relu"}, "name": "activation_305", "inbound_nodes": [[["bn3a_branch2b", 0, 0, {}]]]}, {"class_name": "Conv3D", "config": {"name": "res3a_branch2c", "trainable": true, "dtype": "float32", "filters": 512, "kernel_size": [1, 1, 1], "strides": [1, 1, 1], "padding": "valid", "data_format": "channels_last", "dilation_rate": [1, 1, 1], "groups": 1, "activation": "linear", "use_bias": true, "kernel_initializer": {"class_name": "HeUniform", "config": {"seed": null}}, "bias_initializer": {"class_name": "Zeros", "config": {}}, "kernel_regularizer": null, "bias_regularizer": null, "activity_regularizer": null, "kernel_constraint": null, "bias_constraint": null}, "name": "res3a_branch2c", "inbound_nodes": [[["activation_305", 0, 0, {}]]]}, {"class_name": "Conv3D", "config": {"name": "res3a_branch1", "trainable": true, "dtype": "float32", "filters": 512, "kernel_size": [1, 1, 1], "strides": [2, 2, 2], "padding": "valid", "data_format": "channels_last", "dilation_rate": [1, 1, 1], "groups": 1, "activation": "linear", "use_bias": true, "kernel_initializer": {"class_name": "HeUniform", "config": {"seed": null}}, "bias_initializer": {"class_name": "Zeros", "config": {}}, "kernel_regularizer": null, "bias_regularizer": null, "activity_regularizer": null, "kernel_constraint": null, "bias_constraint": null}, "name": "res3a_branch1", "inbound_nodes": [[["activation_303", 0, 0, {}]]]}, {"class_name": "BatchNormalization", "config": {"name": "bn3a_branch2c", "trainable": true, "dtype": "float32", "axis": [3], "momentum": 0.99, "epsilon": 0.001, "center": true, "scale": true, "beta_initializer": {"class_name": "Zeros", "config": {}}, "gamma_initializer": {"class_name": "Ones", "config": {}}, "moving_mean_initializer": {"class_name": "Zeros", "config": {}}, "moving_variance_initializer": {"class_name": "Ones", "config": {}}, "beta_regularizer": null, "gamma_regularizer": null, "beta_constraint": null, "gamma_constraint": null}, "name": "bn3a_branch2c", "inbound_nodes": [[["res3a_branch2c", 0, 0, {}]]]}, {"class_name": "BatchNormalization", "config": {"name": "bn3a_branch1", "trainable": true, "dtype": "float32", "axis": [3], "momentum": 0.99, "epsilon": 0.001, "center": true, "scale": true, "beta_initializer": {"class_name": "Zeros", "config": {}}, "gamma_initializer": {"class_name": "Ones", "config": {}}, "moving_mean_initializer": {"class_name": "Zeros", "config": {}}, "moving_variance_initializer": {"class_name": "Ones", "config": {}}, "beta_regularizer": null, "gamma_regularizer": null, "beta_constraint": null, "gamma_constraint": null}, "name": "bn3a_branch1", "inbound_nodes": [[["res3a_branch1", 0, 0, {}]]]}, {"class_name": "Add", "config": {"name": "add_99", "trainable": true, "dtype": "float32"}, "name": "add_99", "inbound_nodes": [[["bn3a_branch2c", 0, 0, {}], ["bn3a_branch1", 0, 0, {}]]]}, {"class_name": "Activation", "config": {"name": "activation_306", "trainable": true, "dtype": "float32", "activation": "relu"}, "name": "activation_306", "inbound_nodes": [[["add_99", 0, 0, {}]]]}, {"class_name": "Conv3D", "config": {"name": "res3b_branch2a", "trainable": true, "dtype": "float32", "filters": 128, "kernel_size": [1, 1, 1], "strides": [1, 1, 1], "padding": "valid", "data_format": "channels_last", "dilation_rate": [1, 1, 1], "groups": 1, "activation": "linear", "use_bias": true, "kernel_initializer": {"class_name": "HeUniform", "config": {"seed": null}}, "bias_initializer": {"class_name": "Zeros", "config": {}}, "kernel_regularizer": null, "bias_regularizer": null, "activity_regularizer": null, "kernel_constraint": null, "bias_constraint": null}, "name": "res3b_branch2a", "inbound_nodes": [[["activation_306", 0, 0, {}]]]}, {"class_name": "BatchNormalization", "config": {"name": "bn3b_branch2a", "trainable": true, "dtype": "float32", "axis": [3], "momentum": 0.99, "epsilon": 0.001, "center": true, "scale": true, "beta_initializer": {"class_name": "Zeros", "config": {}}, "gamma_initializer": {"class_name": "Ones", "config": {}}, "moving_mean_initializer": {"class_name": "Zeros", "config": {}}, "moving_variance_initializer": {"class_name": "Ones", "config": {}}, "beta_regularizer": null, "gamma_regularizer": null, "beta_constraint": null, "gamma_constraint": null}, "name": "bn3b_branch2a", "inbound_nodes": [[["res3b_branch2a", 0, 0, {}]]]}, {"class_name": "Activation", "config": {"name": "activation_307", "trainable": true, "dtype": "float32", "activation": "relu"}, "name": "activation_307", "inbound_nodes": [[["bn3b_branch2a", 0, 0, {}]]]}, {"class_name": "Conv3D", "config": {"name": "res3b_branch2b", "trainable": true, "dtype": "float32", "filters": 128, "kernel_size": [3, 3, 3], "strides": [1, 1, 1], "padding": "same", "data_format": "channels_last", "dilation_rate": [1, 1, 1], "groups": 1, "activation": "linear", "use_bias": true, "kernel_initializer": {"class_name": "HeUniform", "config": {"seed": null}}, "bias_initializer": {"class_name": "Zeros", "config": {}}, "kernel_regularizer": null, "bias_regularizer": null, "activity_regularizer": null, "kernel_constraint": null, "bias_constraint": null}, "name": "res3b_branch2b", "inbound_nodes": [[["activation_307", 0, 0, {}]]]}, {"class_name": "BatchNormalization", "config": {"name": "bn3b_branch2b", "trainable": true, "dtype": "float32", "axis": [3], "momentum": 0.99, "epsilon": 0.001, "center": true, "scale": true, "beta_initializer": {"class_name": "Zeros", "config": {}}, "gamma_initializer": {"class_name": "Ones", "config": {}}, "moving_mean_initializer": {"class_name": "Zeros", "config": {}}, "moving_variance_initializer": {"class_name": "Ones", "config": {}}, "beta_regularizer": null, "gamma_regularizer": null, "beta_constraint": null, "gamma_constraint": null}, "name": "bn3b_branch2b", "inbound_nodes": [[["res3b_branch2b", 0, 0, {}]]]}, {"class_name": "Activation", "config": {"name": "activation_308", "trainable": true, "dtype": "float32", "activation": "relu"}, "name": "activation_308", "inbound_nodes": [[["bn3b_branch2b", 0, 0, {}]]]}, {"class_name": "Conv3D", "config": {"name": "res3b_branch2c", "trainable": true, "dtype": "float32", "filters": 512, "kernel_size": [1, 1, 1], "strides": [1, 1, 1], "padding": "valid", "data_format": "channels_last", "dilation_rate": [1, 1, 1], "groups": 1, "activation": "linear", "use_bias": true, "kernel_initializer": {"class_name": "HeUniform", "config": {"seed": null}}, "bias_initializer": {"class_name": "Zeros", "config": {}}, "kernel_regularizer": null, "bias_regularizer": null, "activity_regularizer": null, "kernel_constraint": null, "bias_constraint": null}, "name": "res3b_branch2c", "inbound_nodes": [[["activation_308", 0, 0, {}]]]}, {"class_name": "BatchNormalization", "config": {"name": "bn3b_branch2c", "trainable": true, "dtype": "float32", "axis": [3], "momentum": 0.99, "epsilon": 0.001, "center": true, "scale": true, "beta_initializer": {"class_name": "Zeros", "config": {}}, "gamma_initializer": {"class_name": "Ones", "config": {}}, "moving_mean_initializer": {"class_name": "Zeros", "config": {}}, "moving_variance_initializer": {"class_name": "Ones", "config": {}}, "beta_regularizer": null, "gamma_regularizer": null, "beta_constraint": null, "gamma_constraint": null}, "name": "bn3b_branch2c", "inbound_nodes": [[["res3b_branch2c", 0, 0, {}]]]}, {"class_name": "Add", "config": {"name": "add_100", "trainable": true, "dtype": "float32"}, "name": "add_100", "inbound_nodes": [[["bn3b_branch2c", 0, 0, {}], ["activation_306", 0, 0, {}]]]}, {"class_name": "Activation", "config": {"name": "activation_309", "trainable": true, "dtype": "float32", "activation": "relu"}, "name": "activation_309", "inbound_nodes": [[["add_100", 0, 0, {}]]]}, {"class_name": "Conv3D", "config": {"name": "res3c_branch2a", "trainable": true, "dtype": "float32", "filters": 128, "kernel_size": [1, 1, 1], "strides": [1, 1, 1], "padding": "valid", "data_format": "channels_last", "dilation_rate": [1, 1, 1], "groups": 1, "activation": "linear", "use_bias": true, "kernel_initializer": {"class_name": "HeUniform", "config": {"seed": null}}, "bias_initializer": {"class_name": "Zeros", "config": {}}, "kernel_regularizer": null, "bias_regularizer": null, "activity_regularizer": null, "kernel_constraint": null, "bias_constraint": null}, "name": "res3c_branch2a", "inbound_nodes": [[["activation_309", 0, 0, {}]]]}, {"class_name": "BatchNormalization", "config": {"name": "bn3c_branch2a", "trainable": true, "dtype": "float32", "axis": [3], "momentum": 0.99, "epsilon": 0.001, "center": true, "scale": true, "beta_initializer": {"class_name": "Zeros", "config": {}}, "gamma_initializer": {"class_name": "Ones", "config": {}}, "moving_mean_initializer": {"class_name": "Zeros", "config": {}}, "moving_variance_initializer": {"class_name": "Ones", "config": {}}, "beta_regularizer": null, "gamma_regularizer": null, "beta_constraint": null, "gamma_constraint": null}, "name": "bn3c_branch2a", "inbound_nodes": [[["res3c_branch2a", 0, 0, {}]]]}, {"class_name": "Activation", "config": {"name": "activation_310", "trainable": true, "dtype": "float32", "activation": "relu"}, "name": "activation_310", "inbound_nodes": [[["bn3c_branch2a", 0, 0, {}]]]}, {"class_name": "Conv3D", "config": {"name": "res3c_branch2b", "trainable": true, "dtype": "float32", "filters": 128, "kernel_size": [3, 3, 3], "strides": [1, 1, 1], "padding": "same", "data_format": "channels_last", "dilation_rate": [1, 1, 1], "groups": 1, "activation": "linear", "use_bias": true, "kernel_initializer": {"class_name": "HeUniform", "config": {"seed": null}}, "bias_initializer": {"class_name": "Zeros", "config": {}}, "kernel_regularizer": null, "bias_regularizer": null, "activity_regularizer": null, "kernel_constraint": null, "bias_constraint": null}, "name": "res3c_branch2b", "inbound_nodes": [[["activation_310", 0, 0, {}]]]}, {"class_name": "BatchNormalization", "config": {"name": "bn3c_branch2b", "trainable": true, "dtype": "float32", "axis": [3], "momentum": 0.99, "epsilon": 0.001, "center": true, "scale": true, "beta_initializer": {"class_name": "Zeros", "config": {}}, "gamma_initializer": {"class_name": "Ones", "config": {}}, "moving_mean_initializer": {"class_name": "Zeros", "config": {}}, "moving_variance_initializer": {"class_name": "Ones", "config": {}}, "beta_regularizer": null, "gamma_regularizer": null, "beta_constraint": null, "gamma_constraint": null}, "name": "bn3c_branch2b", "inbound_nodes": [[["res3c_branch2b", 0, 0, {}]]]}, {"class_name": "Activation", "config": {"name": "activation_311", "trainable": true, "dtype": "float32", "activation": "relu"}, "name": "activation_311", "inbound_nodes": [[["bn3c_branch2b", 0, 0, {}]]]}, {"class_name": "Conv3D", "config": {"name": "res3c_branch2c", "trainable": true, "dtype": "float32", "filters": 512, "kernel_size": [1, 1, 1], "strides": [1, 1, 1], "padding": "valid", "data_format": "channels_last", "dilation_rate": [1, 1, 1], "groups": 1, "activation": "linear", "use_bias": true, "kernel_initializer": {"class_name": "HeUniform", "config": {"seed": null}}, "bias_initializer": {"class_name": "Zeros", "config": {}}, "kernel_regularizer": null, "bias_regularizer": null, "activity_regularizer": null, "kernel_constraint": null, "bias_constraint": null}, "name": "res3c_branch2c", "inbound_nodes": [[["activation_311", 0, 0, {}]]]}, {"class_name": "BatchNormalization", "config": {"name": "bn3c_branch2c", "trainable": true, "dtype": "float32", "axis": [3], "momentum": 0.99, "epsilon": 0.001, "center": true, "scale": true, "beta_initializer": {"class_name": "Zeros", "config": {}}, "gamma_initializer": {"class_name": "Ones", "config": {}}, "moving_mean_initializer": {"class_name": "Zeros", "config": {}}, "moving_variance_initializer": {"class_name": "Ones", "config": {}}, "beta_regularizer": null, "gamma_regularizer": null, "beta_constraint": null, "gamma_constraint": null}, "name": "bn3c_branch2c", "inbound_nodes": [[["res3c_branch2c", 0, 0, {}]]]}, {"class_name": "Add", "config": {"name": "add_101", "trainable": true, "dtype": "float32"}, "name": "add_101", "inbound_nodes": [[["bn3c_branch2c", 0, 0, {}], ["activation_309", 0, 0, {}]]]}, {"class_name": "Activation", "config": {"name": "activation_312", "trainable": true, "dtype": "float32", "activation": "relu"}, "name": "activation_312", "inbound_nodes": [[["add_101", 0, 0, {}]]]}, {"class_name": "Conv3D", "config": {"name": "res3d_branch2a", "trainable": true, "dtype": "float32", "filters": 128, "kernel_size": [1, 1, 1], "strides": [1, 1, 1], "padding": "valid", "data_format": "channels_last", "dilation_rate": [1, 1, 1], "groups": 1, "activation": "linear", "use_bias": true, "kernel_initializer": {"class_name": "HeUniform", "config": {"seed": null}}, "bias_initializer": {"class_name": "Zeros", "config": {}}, "kernel_regularizer": null, "bias_regularizer": null, "activity_regularizer": null, "kernel_constraint": null, "bias_constraint": null}, "name": "res3d_branch2a", "inbound_nodes": [[["activation_312", 0, 0, {}]]]}, {"class_name": "BatchNormalization", "config": {"name": "bn3d_branch2a", "trainable": true, "dtype": "float32", "axis": [3], "momentum": 0.99, "epsilon": 0.001, "center": true, "scale": true, "beta_initializer": {"class_name": "Zeros", "config": {}}, "gamma_initializer": {"class_name": "Ones", "config": {}}, "moving_mean_initializer": {"class_name": "Zeros", "config": {}}, "moving_variance_initializer": {"class_name": "Ones", "config": {}}, "beta_regularizer": null, "gamma_regularizer": null, "beta_constraint": null, "gamma_constraint": null}, "name": "bn3d_branch2a", "inbound_nodes": [[["res3d_branch2a", 0, 0, {}]]]}, {"class_name": "Activation", "config": {"name": "activation_313", "trainable": true, "dtype": "float32", "activation": "relu"}, "name": "activation_313", "inbound_nodes": [[["bn3d_branch2a", 0, 0, {}]]]}, {"class_name": "Conv3D", "config": {"name": "res3d_branch2b", "trainable": true, "dtype": "float32", "filters": 128, "kernel_size": [3, 3, 3], "strides": [1, 1, 1], "padding": "same", "data_format": "channels_last", "dilation_rate": [1, 1, 1], "groups": 1, "activation": "linear", "use_bias": true, "kernel_initializer": {"class_name": "HeUniform", "config": {"seed": null}}, "bias_initializer": {"class_name": "Zeros", "config": {}}, "kernel_regularizer": null, "bias_regularizer": null, "activity_regularizer": null, "kernel_constraint": null, "bias_constraint": null}, "name": "res3d_branch2b", "inbound_nodes": [[["activation_313", 0, 0, {}]]]}, {"class_name": "BatchNormalization", "config": {"name": "bn3d_branch2b", "trainable": true, "dtype": "float32", "axis": [3], "momentum": 0.99, "epsilon": 0.001, "center": true, "scale": true, "beta_initializer": {"class_name": "Zeros", "config": {}}, "gamma_initializer": {"class_name": "Ones", "config": {}}, "moving_mean_initializer": {"class_name": "Zeros", "config": {}}, "moving_variance_initializer": {"class_name": "Ones", "config": {}}, "beta_regularizer": null, "gamma_regularizer": null, "beta_constraint": null, "gamma_constraint": null}, "name": "bn3d_branch2b", "inbound_nodes": [[["res3d_branch2b", 0, 0, {}]]]}, {"class_name": "Activation", "config": {"name": "activation_314", "trainable": true, "dtype": "float32", "activation": "relu"}, "name": "activation_314", "inbound_nodes": [[["bn3d_branch2b", 0, 0, {}]]]}, {"class_name": "Conv3D", "config": {"name": "res3d_branch2c", "trainable": true, "dtype": "float32", "filters": 512, "kernel_size": [1, 1, 1], "strides": [1, 1, 1], "padding": "valid", "data_format": "channels_last", "dilation_rate": [1, 1, 1], "groups": 1, "activation": "linear", "use_bias": true, "kernel_initializer": {"class_name": "HeUniform", "config": {"seed": null}}, "bias_initializer": {"class_name": "Zeros", "config": {}}, "kernel_regularizer": null, "bias_regularizer": null, "activity_regularizer": null, "kernel_constraint": null, "bias_constraint": null}, "name": "res3d_branch2c", "inbound_nodes": [[["activation_314", 0, 0, {}]]]}, {"class_name": "BatchNormalization", "config": {"name": "bn3d_branch2c", "trainable": true, "dtype": "float32", "axis": [3], "momentum": 0.99, "epsilon": 0.001, "center": true, "scale": true, "beta_initializer": {"class_name": "Zeros", "config": {}}, "gamma_initializer": {"class_name": "Ones", "config": {}}, "moving_mean_initializer": {"class_name": "Zeros", "config": {}}, "moving_variance_initializer": {"class_name": "Ones", "config": {}}, "beta_regularizer": null, "gamma_regularizer": null, "beta_constraint": null, "gamma_constraint": null}, "name": "bn3d_branch2c", "inbound_nodes": [[["res3d_branch2c", 0, 0, {}]]]}, {"class_name": "Add", "config": {"name": "add_102", "trainable": true, "dtype": "float32"}, "name": "add_102", "inbound_nodes": [[["bn3d_branch2c", 0, 0, {}], ["activation_312", 0, 0, {}]]]}, {"class_name": "Activation", "config": {"name": "activation_315", "trainable": true, "dtype": "float32", "activation": "relu"}, "name": "activation_315", "inbound_nodes": [[["add_102", 0, 0, {}]]]}, {"class_name": "Conv3D", "config": {"name": "res4a_branch2a", "trainable": true, "dtype": "float32", "filters": 256, "kernel_size": [1, 1, 1], "strides": [2, 2, 2], "padding": "valid", "data_format": "channels_last", "dilation_rate": [1, 1, 1], "groups": 1, "activation": "linear", "use_bias": true, "kernel_initializer": {"class_name": "HeUniform", "config": {"seed": null}}, "bias_initializer": {"class_name": "Zeros", "config": {}}, "kernel_regularizer": null, "bias_regularizer": null, "activity_regularizer": null, "kernel_constraint": null, "bias_constraint": null}, "name": "res4a_branch2a", "inbound_nodes": [[["activation_315", 0, 0, {}]]]}, {"class_name": "BatchNormalization", "config": {"name": "bn4a_branch2a", "trainable": true, "dtype": "float32", "axis": [3], "momentum": 0.99, "epsilon": 0.001, "center": true, "scale": true, "beta_initializer": {"class_name": "Zeros", "config": {}}, "gamma_initializer": {"class_name": "Ones", "config": {}}, "moving_mean_initializer": {"class_name": "Zeros", "config": {}}, "moving_variance_initializer": {"class_name": "Ones", "config": {}}, "beta_regularizer": null, "gamma_regularizer": null, "beta_constraint": null, "gamma_constraint": null}, "name": "bn4a_branch2a", "inbound_nodes": [[["res4a_branch2a", 0, 0, {}]]]}, {"class_name": "Activation", "config": {"name": "activation_316", "trainable": true, "dtype": "float32", "activation": "relu"}, "name": "activation_316", "inbound_nodes": [[["bn4a_branch2a", 0, 0, {}]]]}, {"class_name": "Conv3D", "config": {"name": "res4a_branch2b", "trainable": true, "dtype": "float32", "filters": 256, "kernel_size": [3, 3, 3], "strides": [1, 1, 1], "padding": "same", "data_format": "channels_last", "dilation_rate": [1, 1, 1], "groups": 1, "activation": "linear", "use_bias": true, "kernel_initializer": {"class_name": "HeUniform", "config": {"seed": null}}, "bias_initializer": {"class_name": "Zeros", "config": {}}, "kernel_regularizer": null, "bias_regularizer": null, "activity_regularizer": null, "kernel_constraint": null, "bias_constraint": null}, "name": "res4a_branch2b", "inbound_nodes": [[["activation_316", 0, 0, {}]]]}, {"class_name": "BatchNormalization", "config": {"name": "bn4a_branch2b", "trainable": true, "dtype": "float32", "axis": [3], "momentum": 0.99, "epsilon": 0.001, "center": true, "scale": true, "beta_initializer": {"class_name": "Zeros", "config": {}}, "gamma_initializer": {"class_name": "Ones", "config": {}}, "moving_mean_initializer": {"class_name": "Zeros", "config": {}}, "moving_variance_initializer": {"class_name": "Ones", "config": {}}, "beta_regularizer": null, "gamma_regularizer": null, "beta_constraint": null, "gamma_constraint": null}, "name": "bn4a_branch2b", "inbound_nodes": [[["res4a_branch2b", 0, 0, {}]]]}, {"class_name": "Activation", "config": {"name": "activation_317", "trainable": true, "dtype": "float32", "activation": "relu"}, "name": "activation_317", "inbound_nodes": [[["bn4a_branch2b", 0, 0, {}]]]}, {"class_name": "Conv3D", "config": {"name": "res4a_branch2c", "trainable": true, "dtype": "float32", "filters": 1024, "kernel_size": [1, 1, 1], "strides": [1, 1, 1], "padding": "valid", "data_format": "channels_last", "dilation_rate": [1, 1, 1], "groups": 1, "activation": "linear", "use_bias": true, "kernel_initializer": {"class_name": "HeUniform", "config": {"seed": null}}, "bias_initializer": {"class_name": "Zeros", "config": {}}, "kernel_regularizer": null, "bias_regularizer": null, "activity_regularizer": null, "kernel_constraint": null, "bias_constraint": null}, "name": "res4a_branch2c", "inbound_nodes": [[["activation_317", 0, 0, {}]]]}, {"class_name": "Conv3D", "config": {"name": "res4a_branch1", "trainable": true, "dtype": "float32", "filters": 1024, "kernel_size": [1, 1, 1], "strides": [2, 2, 2], "padding": "valid", "data_format": "channels_last", "dilation_rate": [1, 1, 1], "groups": 1, "activation": "linear", "use_bias": true, "kernel_initializer": {"class_name": "HeUniform", "config": {"seed": null}}, "bias_initializer": {"class_name": "Zeros", "config": {}}, "kernel_regularizer": null, "bias_regularizer": null, "activity_regularizer": null, "kernel_constraint": null, "bias_constraint": null}, "name": "res4a_branch1", "inbound_nodes": [[["activation_315", 0, 0, {}]]]}, {"class_name": "BatchNormalization", "config": {"name": "bn4a_branch2c", "trainable": true, "dtype": "float32", "axis": [3], "momentum": 0.99, "epsilon": 0.001, "center": true, "scale": true, "beta_initializer": {"class_name": "Zeros", "config": {}}, "gamma_initializer": {"class_name": "Ones", "config": {}}, "moving_mean_initializer": {"class_name": "Zeros", "config": {}}, "moving_variance_initializer": {"class_name": "Ones", "config": {}}, "beta_regularizer": null, "gamma_regularizer": null, "beta_constraint": null, "gamma_constraint": null}, "name": "bn4a_branch2c", "inbound_nodes": [[["res4a_branch2c", 0, 0, {}]]]}, {"class_name": "BatchNormalization", "config": {"name": "bn4a_branch1", "trainable": true, "dtype": "float32", "axis": [3], "momentum": 0.99, "epsilon": 0.001, "center": true, "scale": true, "beta_initializer": {"class_name": "Zeros", "config": {}}, "gamma_initializer": {"class_name": "Ones", "config": {}}, "moving_mean_initializer": {"class_name": "Zeros", "config": {}}, "moving_variance_initializer": {"class_name": "Ones", "config": {}}, "beta_regularizer": null, "gamma_regularizer": null, "beta_constraint": null, "gamma_constraint": null}, "name": "bn4a_branch1", "inbound_nodes": [[["res4a_branch1", 0, 0, {}]]]}, {"class_name": "Add", "config": {"name": "add_103", "trainable": true, "dtype": "float32"}, "name": "add_103", "inbound_nodes": [[["bn4a_branch2c", 0, 0, {}], ["bn4a_branch1", 0, 0, {}]]]}, {"class_name": "Activation", "config": {"name": "activation_318", "trainable": true, "dtype": "float32", "activation": "relu"}, "name": "activation_318", "inbound_nodes": [[["add_103", 0, 0, {}]]]}, {"class_name": "Conv3D", "config": {"name": "res4b_branch2a", "trainable": true, "dtype": "float32", "filters": 256, "kernel_size": [1, 1, 1], "strides": [1, 1, 1], "padding": "valid", "data_format": "channels_last", "dilation_rate": [1, 1, 1], "groups": 1, "activation": "linear", "use_bias": true, "kernel_initializer": {"class_name": "HeUniform", "config": {"seed": null}}, "bias_initializer": {"class_name": "Zeros", "config": {}}, "kernel_regularizer": null, "bias_regularizer": null, "activity_regularizer": null, "kernel_constraint": null, "bias_constraint": null}, "name": "res4b_branch2a", "inbound_nodes": [[["activation_318", 0, 0, {}]]]}, {"class_name": "BatchNormalization", "config": {"name": "bn4b_branch2a", "trainable": true, "dtype": "float32", "axis": [3], "momentum": 0.99, "epsilon": 0.001, "center": true, "scale": true, "beta_initializer": {"class_name": "Zeros", "config": {}}, "gamma_initializer": {"class_name": "Ones", "config": {}}, "moving_mean_initializer": {"class_name": "Zeros", "config": {}}, "moving_variance_initializer": {"class_name": "Ones", "config": {}}, "beta_regularizer": null, "gamma_regularizer": null, "beta_constraint": null, "gamma_constraint": null}, "name": "bn4b_branch2a", "inbound_nodes": [[["res4b_branch2a", 0, 0, {}]]]}, {"class_name": "Activation", "config": {"name": "activation_319", "trainable": true, "dtype": "float32", "activation": "relu"}, "name": "activation_319", "inbound_nodes": [[["bn4b_branch2a", 0, 0, {}]]]}, {"class_name": "Conv3D", "config": {"name": "res4b_branch2b", "trainable": true, "dtype": "float32", "filters": 256, "kernel_size": [3, 3, 3], "strides": [1, 1, 1], "padding": "same", "data_format": "channels_last", "dilation_rate": [1, 1, 1], "groups": 1, "activation": "linear", "use_bias": true, "kernel_initializer": {"class_name": "HeUniform", "config": {"seed": null}}, "bias_initializer": {"class_name": "Zeros", "config": {}}, "kernel_regularizer": null, "bias_regularizer": null, "activity_regularizer": null, "kernel_constraint": null, "bias_constraint": null}, "name": "res4b_branch2b", "inbound_nodes": [[["activation_319", 0, 0, {}]]]}, {"class_name": "BatchNormalization", "config": {"name": "bn4b_branch2b", "trainable": true, "dtype": "float32", "axis": [3], "momentum": 0.99, "epsilon": 0.001, "center": true, "scale": true, "beta_initializer": {"class_name": "Zeros", "config": {}}, "gamma_initializer": {"class_name": "Ones", "config": {}}, "moving_mean_initializer": {"class_name": "Zeros", "config": {}}, "moving_variance_initializer": {"class_name": "Ones", "config": {}}, "beta_regularizer": null, "gamma_regularizer": null, "beta_constraint": null, "gamma_constraint": null}, "name": "bn4b_branch2b", "inbound_nodes": [[["res4b_branch2b", 0, 0, {}]]]}, {"class_name": "Activation", "config": {"name": "activation_320", "trainable": true, "dtype": "float32", "activation": "relu"}, "name": "activation_320", "inbound_nodes": [[["bn4b_branch2b", 0, 0, {}]]]}, {"class_name": "Conv3D", "config": {"name": "res4b_branch2c", "trainable": true, "dtype": "float32", "filters": 1024, "kernel_size": [1, 1, 1], "strides": [1, 1, 1], "padding": "valid", "data_format": "channels_last", "dilation_rate": [1, 1, 1], "groups": 1, "activation": "linear", "use_bias": true, "kernel_initializer": {"class_name": "HeUniform", "config": {"seed": null}}, "bias_initializer": {"class_name": "Zeros", "config": {}}, "kernel_regularizer": null, "bias_regularizer": null, "activity_regularizer": null, "kernel_constraint": null, "bias_constraint": null}, "name": "res4b_branch2c", "inbound_nodes": [[["activation_320", 0, 0, {}]]]}, {"class_name": "BatchNormalization", "config": {"name": "bn4b_branch2c", "trainable": true, "dtype": "float32", "axis": [3], "momentum": 0.99, "epsilon": 0.001, "center": true, "scale": true, "beta_initializer": {"class_name": "Zeros", "config": {}}, "gamma_initializer": {"class_name": "Ones", "config": {}}, "moving_mean_initializer": {"class_name": "Zeros", "config": {}}, "moving_variance_initializer": {"class_name": "Ones", "config": {}}, "beta_regularizer": null, "gamma_regularizer": null, "beta_constraint": null, "gamma_constraint": null}, "name": "bn4b_branch2c", "inbound_nodes": [[["res4b_branch2c", 0, 0, {}]]]}, {"class_name": "Add", "config": {"name": "add_104", "trainable": true, "dtype": "float32"}, "name": "add_104", "inbound_nodes": [[["bn4b_branch2c", 0, 0, {}], ["activation_318", 0, 0, {}]]]}, {"class_name": "Activation", "config": {"name": "activation_321", "trainable": true, "dtype": "float32", "activation": "relu"}, "name": "activation_321", "inbound_nodes": [[["add_104", 0, 0, {}]]]}, {"class_name": "Conv3D", "config": {"name": "res4c_branch2a", "trainable": true, "dtype": "float32", "filters": 256, "kernel_size": [1, 1, 1], "strides": [1, 1, 1], "padding": "valid", "data_format": "channels_last", "dilation_rate": [1, 1, 1], "groups": 1, "activation": "linear", "use_bias": true, "kernel_initializer": {"class_name": "HeUniform", "config": {"seed": null}}, "bias_initializer": {"class_name": "Zeros", "config": {}}, "kernel_regularizer": null, "bias_regularizer": null, "activity_regularizer": null, "kernel_constraint": null, "bias_constraint": null}, "name": "res4c_branch2a", "inbound_nodes": [[["activation_321", 0, 0, {}]]]}, {"class_name": "BatchNormalization", "config": {"name": "bn4c_branch2a", "trainable": true, "dtype": "float32", "axis": [3], "momentum": 0.99, "epsilon": 0.001, "center": true, "scale": true, "beta_initializer": {"class_name": "Zeros", "config": {}}, "gamma_initializer": {"class_name": "Ones", "config": {}}, "moving_mean_initializer": {"class_name": "Zeros", "config": {}}, "moving_variance_initializer": {"class_name": "Ones", "config": {}}, "beta_regularizer": null, "gamma_regularizer": null, "beta_constraint": null, "gamma_constraint": null}, "name": "bn4c_branch2a", "inbound_nodes": [[["res4c_branch2a", 0, 0, {}]]]}, {"class_name": "Activation", "config": {"name": "activation_322", "trainable": true, "dtype": "float32", "activation": "relu"}, "name": "activation_322", "inbound_nodes": [[["bn4c_branch2a", 0, 0, {}]]]}, {"class_name": "Conv3D", "config": {"name": "res4c_branch2b", "trainable": true, "dtype": "float32", "filters": 256, "kernel_size": [3, 3, 3], "strides": [1, 1, 1], "padding": "same", "data_format": "channels_last", "dilation_rate": [1, 1, 1], "groups": 1, "activation": "linear", "use_bias": true, "kernel_initializer": {"class_name": "HeUniform", "config": {"seed": null}}, "bias_initializer": {"class_name": "Zeros", "config": {}}, "kernel_regularizer": null, "bias_regularizer": null, "activity_regularizer": null, "kernel_constraint": null, "bias_constraint": null}, "name": "res4c_branch2b", "inbound_nodes": [[["activation_322", 0, 0, {}]]]}, {"class_name": "BatchNormalization", "config": {"name": "bn4c_branch2b", "trainable": true, "dtype": "float32", "axis": [3], "momentum": 0.99, "epsilon": 0.001, "center": true, "scale": true, "beta_initializer": {"class_name": "Zeros", "config": {}}, "gamma_initializer": {"class_name": "Ones", "config": {}}, "moving_mean_initializer": {"class_name": "Zeros", "config": {}}, "moving_variance_initializer": {"class_name": "Ones", "config": {}}, "beta_regularizer": null, "gamma_regularizer": null, "beta_constraint": null, "gamma_constraint": null}, "name": "bn4c_branch2b", "inbound_nodes": [[["res4c_branch2b", 0, 0, {}]]]}, {"class_name": "Activation", "config": {"name": "activation_323", "trainable": true, "dtype": "float32", "activation": "relu"}, "name": "activation_323", "inbound_nodes": [[["bn4c_branch2b", 0, 0, {}]]]}, {"class_name": "Conv3D", "config": {"name": "res4c_branch2c", "trainable": true, "dtype": "float32", "filters": 1024, "kernel_size": [1, 1, 1], "strides": [1, 1, 1], "padding": "valid", "data_format": "channels_last", "dilation_rate": [1, 1, 1], "groups": 1, "activation": "linear", "use_bias": true, "kernel_initializer": {"class_name": "HeUniform", "config": {"seed": null}}, "bias_initializer": {"class_name": "Zeros", "config": {}}, "kernel_regularizer": null, "bias_regularizer": null, "activity_regularizer": null, "kernel_constraint": null, "bias_constraint": null}, "name": "res4c_branch2c", "inbound_nodes": [[["activation_323", 0, 0, {}]]]}, {"class_name": "BatchNormalization", "config": {"name": "bn4c_branch2c", "trainable": true, "dtype": "float32", "axis": [3], "momentum": 0.99, "epsilon": 0.001, "center": true, "scale": true, "beta_initializer": {"class_name": "Zeros", "config": {}}, "gamma_initializer": {"class_name": "Ones", "config": {}}, "moving_mean_initializer": {"class_name": "Zeros", "config": {}}, "moving_variance_initializer": {"class_name": "Ones", "config": {}}, "beta_regularizer": null, "gamma_regularizer": null, "beta_constraint": null, "gamma_constraint": null}, "name": "bn4c_branch2c", "inbound_nodes": [[["res4c_branch2c", 0, 0, {}]]]}, {"class_name": "Add", "config": {"name": "add_105", "trainable": true, "dtype": "float32"}, "name": "add_105", "inbound_nodes": [[["bn4c_branch2c", 0, 0, {}], ["activation_321", 0, 0, {}]]]}, {"class_name": "Activation", "config": {"name": "activation_324", "trainable": true, "dtype": "float32", "activation": "relu"}, "name": "activation_324", "inbound_nodes": [[["add_105", 0, 0, {}]]]}, {"class_name": "Conv3D", "config": {"name": "res4d_branch2a", "trainable": true, "dtype": "float32", "filters": 256, "kernel_size": [1, 1, 1], "strides": [1, 1, 1], "padding": "valid", "data_format": "channels_last", "dilation_rate": [1, 1, 1], "groups": 1, "activation": "linear", "use_bias": true, "kernel_initializer": {"class_name": "HeUniform", "config": {"seed": null}}, "bias_initializer": {"class_name": "Zeros", "config": {}}, "kernel_regularizer": null, "bias_regularizer": null, "activity_regularizer": null, "kernel_constraint": null, "bias_constraint": null}, "name": "res4d_branch2a", "inbound_nodes": [[["activation_324", 0, 0, {}]]]}, {"class_name": "BatchNormalization", "config": {"name": "bn4d_branch2a", "trainable": true, "dtype": "float32", "axis": [3], "momentum": 0.99, "epsilon": 0.001, "center": true, "scale": true, "beta_initializer": {"class_name": "Zeros", "config": {}}, "gamma_initializer": {"class_name": "Ones", "config": {}}, "moving_mean_initializer": {"class_name": "Zeros", "config": {}}, "moving_variance_initializer": {"class_name": "Ones", "config": {}}, "beta_regularizer": null, "gamma_regularizer": null, "beta_constraint": null, "gamma_constraint": null}, "name": "bn4d_branch2a", "inbound_nodes": [[["res4d_branch2a", 0, 0, {}]]]}, {"class_name": "Activation", "config": {"name": "activation_325", "trainable": true, "dtype": "float32", "activation": "relu"}, "name": "activation_325", "inbound_nodes": [[["bn4d_branch2a", 0, 0, {}]]]}, {"class_name": "Conv3D", "config": {"name": "res4d_branch2b", "trainable": true, "dtype": "float32", "filters": 256, "kernel_size": [3, 3, 3], "strides": [1, 1, 1], "padding": "same", "data_format": "channels_last", "dilation_rate": [1, 1, 1], "groups": 1, "activation": "linear", "use_bias": true, "kernel_initializer": {"class_name": "HeUniform", "config": {"seed": null}}, "bias_initializer": {"class_name": "Zeros", "config": {}}, "kernel_regularizer": null, "bias_regularizer": null, "activity_regularizer": null, "kernel_constraint": null, "bias_constraint": null}, "name": "res4d_branch2b", "inbound_nodes": [[["activation_325", 0, 0, {}]]]}, {"class_name": "BatchNormalization", "config": {"name": "bn4d_branch2b", "trainable": true, "dtype": "float32", "axis": [3], "momentum": 0.99, "epsilon": 0.001, "center": true, "scale": true, "beta_initializer": {"class_name": "Zeros", "config": {}}, "gamma_initializer": {"class_name": "Ones", "config": {}}, "moving_mean_initializer": {"class_name": "Zeros", "config": {}}, "moving_variance_initializer": {"class_name": "Ones", "config": {}}, "beta_regularizer": null, "gamma_regularizer": null, "beta_constraint": null, "gamma_constraint": null}, "name": "bn4d_branch2b", "inbound_nodes": [[["res4d_branch2b", 0, 0, {}]]]}, {"class_name": "Activation", "config": {"name": "activation_326", "trainable": true, "dtype": "float32", "activation": "relu"}, "name": "activation_326", "inbound_nodes": [[["bn4d_branch2b", 0, 0, {}]]]}, {"class_name": "Conv3D", "config": {"name": "res4d_branch2c", "trainable": true, "dtype": "float32", "filters": 1024, "kernel_size": [1, 1, 1], "strides": [1, 1, 1], "padding": "valid", "data_format": "channels_last", "dilation_rate": [1, 1, 1], "groups": 1, "activation": "linear", "use_bias": true, "kernel_initializer": {"class_name": "HeUniform", "config": {"seed": null}}, "bias_initializer": {"class_name": "Zeros", "config": {}}, "kernel_regularizer": null, "bias_regularizer": null, "activity_regularizer": null, "kernel_constraint": null, "bias_constraint": null}, "name": "res4d_branch2c", "inbound_nodes": [[["activation_326", 0, 0, {}]]]}, {"class_name": "BatchNormalization", "config": {"name": "bn4d_branch2c", "trainable": true, "dtype": "float32", "axis": [3], "momentum": 0.99, "epsilon": 0.001, "center": true, "scale": true, "beta_initializer": {"class_name": "Zeros", "config": {}}, "gamma_initializer": {"class_name": "Ones", "config": {}}, "moving_mean_initializer": {"class_name": "Zeros", "config": {}}, "moving_variance_initializer": {"class_name": "Ones", "config": {}}, "beta_regularizer": null, "gamma_regularizer": null, "beta_constraint": null, "gamma_constraint": null}, "name": "bn4d_branch2c", "inbound_nodes": [[["res4d_branch2c", 0, 0, {}]]]}, {"class_name": "Add", "config": {"name": "add_106", "trainable": true, "dtype": "float32"}, "name": "add_106", "inbound_nodes": [[["bn4d_branch2c", 0, 0, {}], ["activation_324", 0, 0, {}]]]}, {"class_name": "Activation", "config": {"name": "activation_327", "trainable": true, "dtype": "float32", "activation": "relu"}, "name": "activation_327", "inbound_nodes": [[["add_106", 0, 0, {}]]]}, {"class_name": "Conv3D", "config": {"name": "res4e_branch2a", "trainable": true, "dtype": "float32", "filters": 256, "kernel_size": [1, 1, 1], "strides": [1, 1, 1], "padding": "valid", "data_format": "channels_last", "dilation_rate": [1, 1, 1], "groups": 1, "activation": "linear", "use_bias": true, "kernel_initializer": {"class_name": "HeUniform", "config": {"seed": null}}, "bias_initializer": {"class_name": "Zeros", "config": {}}, "kernel_regularizer": null, "bias_regularizer": null, "activity_regularizer": null, "kernel_constraint": null, "bias_constraint": null}, "name": "res4e_branch2a", "inbound_nodes": [[["activation_327", 0, 0, {}]]]}, {"class_name": "BatchNormalization", "config": {"name": "bn4e_branch2a", "trainable": true, "dtype": "float32", "axis": [3], "momentum": 0.99, "epsilon": 0.001, "center": true, "scale": true, "beta_initializer": {"class_name": "Zeros", "config": {}}, "gamma_initializer": {"class_name": "Ones", "config": {}}, "moving_mean_initializer": {"class_name": "Zeros", "config": {}}, "moving_variance_initializer": {"class_name": "Ones", "config": {}}, "beta_regularizer": null, "gamma_regularizer": null, "beta_constraint": null, "gamma_constraint": null}, "name": "bn4e_branch2a", "inbound_nodes": [[["res4e_branch2a", 0, 0, {}]]]}, {"class_name": "Activation", "config": {"name": "activation_328", "trainable": true, "dtype": "float32", "activation": "relu"}, "name": "activation_328", "inbound_nodes": [[["bn4e_branch2a", 0, 0, {}]]]}, {"class_name": "Conv3D", "config": {"name": "res4e_branch2b", "trainable": true, "dtype": "float32", "filters": 256, "kernel_size": [3, 3, 3], "strides": [1, 1, 1], "padding": "same", "data_format": "channels_last", "dilation_rate": [1, 1, 1], "groups": 1, "activation": "linear", "use_bias": true, "kernel_initializer": {"class_name": "HeUniform", "config": {"seed": null}}, "bias_initializer": {"class_name": "Zeros", "config": {}}, "kernel_regularizer": null, "bias_regularizer": null, "activity_regularizer": null, "kernel_constraint": null, "bias_constraint": null}, "name": "res4e_branch2b", "inbound_nodes": [[["activation_328", 0, 0, {}]]]}, {"class_name": "BatchNormalization", "config": {"name": "bn4e_branch2b", "trainable": true, "dtype": "float32", "axis": [3], "momentum": 0.99, "epsilon": 0.001, "center": true, "scale": true, "beta_initializer": {"class_name": "Zeros", "config": {}}, "gamma_initializer": {"class_name": "Ones", "config": {}}, "moving_mean_initializer": {"class_name": "Zeros", "config": {}}, "moving_variance_initializer": {"class_name": "Ones", "config": {}}, "beta_regularizer": null, "gamma_regularizer": null, "beta_constraint": null, "gamma_constraint": null}, "name": "bn4e_branch2b", "inbound_nodes": [[["res4e_branch2b", 0, 0, {}]]]}, {"class_name": "Activation", "config": {"name": "activation_329", "trainable": true, "dtype": "float32", "activation": "relu"}, "name": "activation_329", "inbound_nodes": [[["bn4e_branch2b", 0, 0, {}]]]}, {"class_name": "Conv3D", "config": {"name": "res4e_branch2c", "trainable": true, "dtype": "float32", "filters": 1024, "kernel_size": [1, 1, 1], "strides": [1, 1, 1], "padding": "valid", "data_format": "channels_last", "dilation_rate": [1, 1, 1], "groups": 1, "activation": "linear", "use_bias": true, "kernel_initializer": {"class_name": "HeUniform", "config": {"seed": null}}, "bias_initializer": {"class_name": "Zeros", "config": {}}, "kernel_regularizer": null, "bias_regularizer": null, "activity_regularizer": null, "kernel_constraint": null, "bias_constraint": null}, "name": "res4e_branch2c", "inbound_nodes": [[["activation_329", 0, 0, {}]]]}, {"class_name": "BatchNormalization", "config": {"name": "bn4e_branch2c", "trainable": true, "dtype": "float32", "axis": [3], "momentum": 0.99, "epsilon": 0.001, "center": true, "scale": true, "beta_initializer": {"class_name": "Zeros", "config": {}}, "gamma_initializer": {"class_name": "Ones", "config": {}}, "moving_mean_initializer": {"class_name": "Zeros", "config": {}}, "moving_variance_initializer": {"class_name": "Ones", "config": {}}, "beta_regularizer": null, "gamma_regularizer": null, "beta_constraint": null, "gamma_constraint": null}, "name": "bn4e_branch2c", "inbound_nodes": [[["res4e_branch2c", 0, 0, {}]]]}, {"class_name": "Add", "config": {"name": "add_107", "trainable": true, "dtype": "float32"}, "name": "add_107", "inbound_nodes": [[["bn4e_branch2c", 0, 0, {}], ["activation_327", 0, 0, {}]]]}, {"class_name": "Activation", "config": {"name": "activation_330", "trainable": true, "dtype": "float32", "activation": "relu"}, "name": "activation_330", "inbound_nodes": [[["add_107", 0, 0, {}]]]}, {"class_name": "Conv3D", "config": {"name": "res4f_branch2a", "trainable": true, "dtype": "float32", "filters": 256, "kernel_size": [1, 1, 1], "strides": [1, 1, 1], "padding": "valid", "data_format": "channels_last", "dilation_rate": [1, 1, 1], "groups": 1, "activation": "linear", "use_bias": true, "kernel_initializer": {"class_name": "HeUniform", "config": {"seed": null}}, "bias_initializer": {"class_name": "Zeros", "config": {}}, "kernel_regularizer": null, "bias_regularizer": null, "activity_regularizer": null, "kernel_constraint": null, "bias_constraint": null}, "name": "res4f_branch2a", "inbound_nodes": [[["activation_330", 0, 0, {}]]]}, {"class_name": "BatchNormalization", "config": {"name": "bn4f_branch2a", "trainable": true, "dtype": "float32", "axis": [3], "momentum": 0.99, "epsilon": 0.001, "center": true, "scale": true, "beta_initializer": {"class_name": "Zeros", "config": {}}, "gamma_initializer": {"class_name": "Ones", "config": {}}, "moving_mean_initializer": {"class_name": "Zeros", "config": {}}, "moving_variance_initializer": {"class_name": "Ones", "config": {}}, "beta_regularizer": null, "gamma_regularizer": null, "beta_constraint": null, "gamma_constraint": null}, "name": "bn4f_branch2a", "inbound_nodes": [[["res4f_branch2a", 0, 0, {}]]]}, {"class_name": "Activation", "config": {"name": "activation_331", "trainable": true, "dtype": "float32", "activation": "relu"}, "name": "activation_331", "inbound_nodes": [[["bn4f_branch2a", 0, 0, {}]]]}, {"class_name": "Conv3D", "config": {"name": "res4f_branch2b", "trainable": true, "dtype": "float32", "filters": 256, "kernel_size": [3, 3, 3], "strides": [1, 1, 1], "padding": "same", "data_format": "channels_last", "dilation_rate": [1, 1, 1], "groups": 1, "activation": "linear", "use_bias": true, "kernel_initializer": {"class_name": "HeUniform", "config": {"seed": null}}, "bias_initializer": {"class_name": "Zeros", "config": {}}, "kernel_regularizer": null, "bias_regularizer": null, "activity_regularizer": null, "kernel_constraint": null, "bias_constraint": null}, "name": "res4f_branch2b", "inbound_nodes": [[["activation_331", 0, 0, {}]]]}, {"class_name": "BatchNormalization", "config": {"name": "bn4f_branch2b", "trainable": true, "dtype": "float32", "axis": [3], "momentum": 0.99, "epsilon": 0.001, "center": true, "scale": true, "beta_initializer": {"class_name": "Zeros", "config": {}}, "gamma_initializer": {"class_name": "Ones", "config": {}}, "moving_mean_initializer": {"class_name": "Zeros", "config": {}}, "moving_variance_initializer": {"class_name": "Ones", "config": {}}, "beta_regularizer": null, "gamma_regularizer": null, "beta_constraint": null, "gamma_constraint": null}, "name": "bn4f_branch2b", "inbound_nodes": [[["res4f_branch2b", 0, 0, {}]]]}, {"class_name": "Activation", "config": {"name": "activation_332", "trainable": true, "dtype": "float32", "activation": "relu"}, "name": "activation_332", "inbound_nodes": [[["bn4f_branch2b", 0, 0, {}]]]}, {"class_name": "Conv3D", "config": {"name": "res4f_branch2c", "trainable": true, "dtype": "float32", "filters": 1024, "kernel_size": [1, 1, 1], "strides": [1, 1, 1], "padding": "valid", "data_format": "channels_last", "dilation_rate": [1, 1, 1], "groups": 1, "activation": "linear", "use_bias": true, "kernel_initializer": {"class_name": "HeUniform", "config": {"seed": null}}, "bias_initializer": {"class_name": "Zeros", "config": {}}, "kernel_regularizer": null, "bias_regularizer": null, "activity_regularizer": null, "kernel_constraint": null, "bias_constraint": null}, "name": "res4f_branch2c", "inbound_nodes": [[["activation_332", 0, 0, {}]]]}, {"class_name": "BatchNormalization", "config": {"name": "bn4f_branch2c", "trainable": true, "dtype": "float32", "axis": [3], "momentum": 0.99, "epsilon": 0.001, "center": true, "scale": true, "beta_initializer": {"class_name": "Zeros", "config": {}}, "gamma_initializer": {"class_name": "Ones", "config": {}}, "moving_mean_initializer": {"class_name": "Zeros", "config": {}}, "moving_variance_initializer": {"class_name": "Ones", "config": {}}, "beta_regularizer": null, "gamma_regularizer": null, "beta_constraint": null, "gamma_constraint": null}, "name": "bn4f_branch2c", "inbound_nodes": [[["res4f_branch2c", 0, 0, {}]]]}, {"class_name": "Add", "config": {"name": "add_108", "trainable": true, "dtype": "float32"}, "name": "add_108", "inbound_nodes": [[["bn4f_branch2c", 0, 0, {}], ["activation_330", 0, 0, {}]]]}, {"class_name": "Activation", "config": {"name": "activation_333", "trainable": true, "dtype": "float32", "activation": "relu"}, "name": "activation_333", "inbound_nodes": [[["add_108", 0, 0, {}]]]}, {"class_name": "Conv3D", "config": {"name": "res5a_branch2a", "trainable": true, "dtype": "float32", "filters": 512, "kernel_size": [1, 1, 1], "strides": [2, 2, 2], "padding": "valid", "data_format": "channels_last", "dilation_rate": [1, 1, 1], "groups": 1, "activation": "linear", "use_bias": true, "kernel_initializer": {"class_name": "HeUniform", "config": {"seed": null}}, "bias_initializer": {"class_name": "Zeros", "config": {}}, "kernel_regularizer": null, "bias_regularizer": null, "activity_regularizer": null, "kernel_constraint": null, "bias_constraint": null}, "name": "res5a_branch2a", "inbound_nodes": [[["activation_333", 0, 0, {}]]]}, {"class_name": "BatchNormalization", "config": {"name": "bn5a_branch2a", "trainable": true, "dtype": "float32", "axis": [3], "momentum": 0.99, "epsilon": 0.001, "center": true, "scale": true, "beta_initializer": {"class_name": "Zeros", "config": {}}, "gamma_initializer": {"class_name": "Ones", "config": {}}, "moving_mean_initializer": {"class_name": "Zeros", "config": {}}, "moving_variance_initializer": {"class_name": "Ones", "config": {}}, "beta_regularizer": null, "gamma_regularizer": null, "beta_constraint": null, "gamma_constraint": null}, "name": "bn5a_branch2a", "inbound_nodes": [[["res5a_branch2a", 0, 0, {}]]]}, {"class_name": "Activation", "config": {"name": "activation_334", "trainable": true, "dtype": "float32", "activation": "relu"}, "name": "activation_334", "inbound_nodes": [[["bn5a_branch2a", 0, 0, {}]]]}, {"class_name": "Conv3D", "config": {"name": "res5a_branch2b", "trainable": true, "dtype": "float32", "filters": 512, "kernel_size": [3, 3, 3], "strides": [1, 1, 1], "padding": "same", "data_format": "channels_last", "dilation_rate": [1, 1, 1], "groups": 1, "activation": "linear", "use_bias": true, "kernel_initializer": {"class_name": "HeUniform", "config": {"seed": null}}, "bias_initializer": {"class_name": "Zeros", "config": {}}, "kernel_regularizer": null, "bias_regularizer": null, "activity_regularizer": null, "kernel_constraint": null, "bias_constraint": null}, "name": "res5a_branch2b", "inbound_nodes": [[["activation_334", 0, 0, {}]]]}, {"class_name": "BatchNormalization", "config": {"name": "bn5a_branch2b", "trainable": true, "dtype": "float32", "axis": [3], "momentum": 0.99, "epsilon": 0.001, "center": true, "scale": true, "beta_initializer": {"class_name": "Zeros", "config": {}}, "gamma_initializer": {"class_name": "Ones", "config": {}}, "moving_mean_initializer": {"class_name": "Zeros", "config": {}}, "moving_variance_initializer": {"class_name": "Ones", "config": {}}, "beta_regularizer": null, "gamma_regularizer": null, "beta_constraint": null, "gamma_constraint": null}, "name": "bn5a_branch2b", "inbound_nodes": [[["res5a_branch2b", 0, 0, {}]]]}, {"class_name": "Activation", "config": {"name": "activation_335", "trainable": true, "dtype": "float32", "activation": "relu"}, "name": "activation_335", "inbound_nodes": [[["bn5a_branch2b", 0, 0, {}]]]}, {"class_name": "Conv3D", "config": {"name": "res5a_branch2c", "trainable": true, "dtype": "float32", "filters": 2048, "kernel_size": [1, 1, 1], "strides": [1, 1, 1], "padding": "valid", "data_format": "channels_last", "dilation_rate": [1, 1, 1], "groups": 1, "activation": "linear", "use_bias": true, "kernel_initializer": {"class_name": "HeUniform", "config": {"seed": null}}, "bias_initializer": {"class_name": "Zeros", "config": {}}, "kernel_regularizer": null, "bias_regularizer": null, "activity_regularizer": null, "kernel_constraint": null, "bias_constraint": null}, "name": "res5a_branch2c", "inbound_nodes": [[["activation_335", 0, 0, {}]]]}, {"class_name": "Conv3D", "config": {"name": "res5a_branch1", "trainable": true, "dtype": "float32", "filters": 2048, "kernel_size": [1, 1, 1], "strides": [2, 2, 2], "padding": "valid", "data_format": "channels_last", "dilation_rate": [1, 1, 1], "groups": 1, "activation": "linear", "use_bias": true, "kernel_initializer": {"class_name": "HeUniform", "config": {"seed": null}}, "bias_initializer": {"class_name": "Zeros", "config": {}}, "kernel_regularizer": null, "bias_regularizer": null, "activity_regularizer": null, "kernel_constraint": null, "bias_constraint": null}, "name": "res5a_branch1", "inbound_nodes": [[["activation_333", 0, 0, {}]]]}, {"class_name": "BatchNormalization", "config": {"name": "bn5a_branch2c", "trainable": true, "dtype": "float32", "axis": [3], "momentum": 0.99, "epsilon": 0.001, "center": true, "scale": true, "beta_initializer": {"class_name": "Zeros", "config": {}}, "gamma_initializer": {"class_name": "Ones", "config": {}}, "moving_mean_initializer": {"class_name": "Zeros", "config": {}}, "moving_variance_initializer": {"class_name": "Ones", "config": {}}, "beta_regularizer": null, "gamma_regularizer": null, "beta_constraint": null, "gamma_constraint": null}, "name": "bn5a_branch2c", "inbound_nodes": [[["res5a_branch2c", 0, 0, {}]]]}, {"class_name": "BatchNormalization", "config": {"name": "bn5a_branch1", "trainable": true, "dtype": "float32", "axis": [3], "momentum": 0.99, "epsilon": 0.001, "center": true, "scale": true, "beta_initializer": {"class_name": "Zeros", "config": {}}, "gamma_initializer": {"class_name": "Ones", "config": {}}, "moving_mean_initializer": {"class_name": "Zeros", "config": {}}, "moving_variance_initializer": {"class_name": "Ones", "config": {}}, "beta_regularizer": null, "gamma_regularizer": null, "beta_constraint": null, "gamma_constraint": null}, "name": "bn5a_branch1", "inbound_nodes": [[["res5a_branch1", 0, 0, {}]]]}, {"class_name": "Add", "config": {"name": "add_109", "trainable": true, "dtype": "float32"}, "name": "add_109", "inbound_nodes": [[["bn5a_branch2c", 0, 0, {}], ["bn5a_branch1", 0, 0, {}]]]}, {"class_name": "Activation", "config": {"name": "activation_336", "trainable": true, "dtype": "float32", "activation": "relu"}, "name": "activation_336", "inbound_nodes": [[["add_109", 0, 0, {}]]]}, {"class_name": "Conv3D", "config": {"name": "res5b_branch2a", "trainable": true, "dtype": "float32", "filters": 512, "kernel_size": [1, 1, 1], "strides": [1, 1, 1], "padding": "valid", "data_format": "channels_last", "dilation_rate": [1, 1, 1], "groups": 1, "activation": "linear", "use_bias": true, "kernel_initializer": {"class_name": "HeUniform", "config": {"seed": null}}, "bias_initializer": {"class_name": "Zeros", "config": {}}, "kernel_regularizer": null, "bias_regularizer": null, "activity_regularizer": null, "kernel_constraint": null, "bias_constraint": null}, "name": "res5b_branch2a", "inbound_nodes": [[["activation_336", 0, 0, {}]]]}, {"class_name": "BatchNormalization", "config": {"name": "bn5b_branch2a", "trainable": true, "dtype": "float32", "axis": [3], "momentum": 0.99, "epsilon": 0.001, "center": true, "scale": true, "beta_initializer": {"class_name": "Zeros", "config": {}}, "gamma_initializer": {"class_name": "Ones", "config": {}}, "moving_mean_initializer": {"class_name": "Zeros", "config": {}}, "moving_variance_initializer": {"class_name": "Ones", "config": {}}, "beta_regularizer": null, "gamma_regularizer": null, "beta_constraint": null, "gamma_constraint": null}, "name": "bn5b_branch2a", "inbound_nodes": [[["res5b_branch2a", 0, 0, {}]]]}, {"class_name": "Activation", "config": {"name": "activation_337", "trainable": true, "dtype": "float32", "activation": "relu"}, "name": "activation_337", "inbound_nodes": [[["bn5b_branch2a", 0, 0, {}]]]}, {"class_name": "Conv3D", "config": {"name": "res5b_branch2b", "trainable": true, "dtype": "float32", "filters": 512, "kernel_size": [3, 3, 3], "strides": [1, 1, 1], "padding": "same", "data_format": "channels_last", "dilation_rate": [1, 1, 1], "groups": 1, "activation": "linear", "use_bias": true, "kernel_initializer": {"class_name": "HeUniform", "config": {"seed": null}}, "bias_initializer": {"class_name": "Zeros", "config": {}}, "kernel_regularizer": null, "bias_regularizer": null, "activity_regularizer": null, "kernel_constraint": null, "bias_constraint": null}, "name": "res5b_branch2b", "inbound_nodes": [[["activation_337", 0, 0, {}]]]}, {"class_name": "BatchNormalization", "config": {"name": "bn5b_branch2b", "trainable": true, "dtype": "float32", "axis": [3], "momentum": 0.99, "epsilon": 0.001, "center": true, "scale": true, "beta_initializer": {"class_name": "Zeros", "config": {}}, "gamma_initializer": {"class_name": "Ones", "config": {}}, "moving_mean_initializer": {"class_name": "Zeros", "config": {}}, "moving_variance_initializer": {"class_name": "Ones", "config": {}}, "beta_regularizer": null, "gamma_regularizer": null, "beta_constraint": null, "gamma_constraint": null}, "name": "bn5b_branch2b", "inbound_nodes": [[["res5b_branch2b", 0, 0, {}]]]}, {"class_name": "Activation", "config": {"name": "activation_338", "trainable": true, "dtype": "float32", "activation": "relu"}, "name": "activation_338", "inbound_nodes": [[["bn5b_branch2b", 0, 0, {}]]]}, {"class_name": "Conv3D", "config": {"name": "res5b_branch2c", "trainable": true, "dtype": "float32", "filters": 2048, "kernel_size": [1, 1, 1], "strides": [1, 1, 1], "padding": "valid", "data_format": "channels_last", "dilation_rate": [1, 1, 1], "groups": 1, "activation": "linear", "use_bias": true, "kernel_initializer": {"class_name": "HeUniform", "config": {"seed": null}}, "bias_initializer": {"class_name": "Zeros", "config": {}}, "kernel_regularizer": null, "bias_regularizer": null, "activity_regularizer": null, "kernel_constraint": null, "bias_constraint": null}, "name": "res5b_branch2c", "inbound_nodes": [[["activation_338", 0, 0, {}]]]}, {"class_name": "BatchNormalization", "config": {"name": "bn5b_branch2c", "trainable": true, "dtype": "float32", "axis": [3], "momentum": 0.99, "epsilon": 0.001, "center": true, "scale": true, "beta_initializer": {"class_name": "Zeros", "config": {}}, "gamma_initializer": {"class_name": "Ones", "config": {}}, "moving_mean_initializer": {"class_name": "Zeros", "config": {}}, "moving_variance_initializer": {"class_name": "Ones", "config": {}}, "beta_regularizer": null, "gamma_regularizer": null, "beta_constraint": null, "gamma_constraint": null}, "name": "bn5b_branch2c", "inbound_nodes": [[["res5b_branch2c", 0, 0, {}]]]}, {"class_name": "Add", "config": {"name": "add_110", "trainable": true, "dtype": "float32"}, "name": "add_110", "inbound_nodes": [[["bn5b_branch2c", 0, 0, {}], ["activation_336", 0, 0, {}]]]}, {"class_name": "Activation", "config": {"name": "activation_339", "trainable": true, "dtype": "float32", "activation": "relu"}, "name": "activation_339", "inbound_nodes": [[["add_110", 0, 0, {}]]]}, {"class_name": "Conv3D", "config": {"name": "res5c_branch2a", "trainable": true, "dtype": "float32", "filters": 512, "kernel_size": [1, 1, 1], "strides": [1, 1, 1], "padding": "valid", "data_format": "channels_last", "dilation_rate": [1, 1, 1], "groups": 1, "activation": "linear", "use_bias": true, "kernel_initializer": {"class_name": "HeUniform", "config": {"seed": null}}, "bias_initializer": {"class_name": "Zeros", "config": {}}, "kernel_regularizer": null, "bias_regularizer": null, "activity_regularizer": null, "kernel_constraint": null, "bias_constraint": null}, "name": "res5c_branch2a", "inbound_nodes": [[["activation_339", 0, 0, {}]]]}, {"class_name": "BatchNormalization", "config": {"name": "bn5c_branch2a", "trainable": true, "dtype": "float32", "axis": [3], "momentum": 0.99, "epsilon": 0.001, "center": true, "scale": true, "beta_initializer": {"class_name": "Zeros", "config": {}}, "gamma_initializer": {"class_name": "Ones", "config": {}}, "moving_mean_initializer": {"class_name": "Zeros", "config": {}}, "moving_variance_initializer": {"class_name": "Ones", "config": {}}, "beta_regularizer": null, "gamma_regularizer": null, "beta_constraint": null, "gamma_constraint": null}, "name": "bn5c_branch2a", "inbound_nodes": [[["res5c_branch2a", 0, 0, {}]]]}, {"class_name": "Activation", "config": {"name": "activation_340", "trainable": true, "dtype": "float32", "activation": "relu"}, "name": "activation_340", "inbound_nodes": [[["bn5c_branch2a", 0, 0, {}]]]}, {"class_name": "Conv3D", "config": {"name": "res5c_branch2b", "trainable": true, "dtype": "float32", "filters": 512, "kernel_size": [3, 3, 3], "strides": [1, 1, 1], "padding": "same", "data_format": "channels_last", "dilation_rate": [1, 1, 1], "groups": 1, "activation": "linear", "use_bias": true, "kernel_initializer": {"class_name": "HeUniform", "config": {"seed": null}}, "bias_initializer": {"class_name": "Zeros", "config": {}}, "kernel_regularizer": null, "bias_regularizer": null, "activity_regularizer": null, "kernel_constraint": null, "bias_constraint": null}, "name": "res5c_branch2b", "inbound_nodes": [[["activation_340", 0, 0, {}]]]}, {"class_name": "BatchNormalization", "config": {"name": "bn5c_branch2b", "trainable": true, "dtype": "float32", "axis": [3], "momentum": 0.99, "epsilon": 0.001, "center": true, "scale": true, "beta_initializer": {"class_name": "Zeros", "config": {}}, "gamma_initializer": {"class_name": "Ones", "config": {}}, "moving_mean_initializer": {"class_name": "Zeros", "config": {}}, "moving_variance_initializer": {"class_name": "Ones", "config": {}}, "beta_regularizer": null, "gamma_regularizer": null, "beta_constraint": null, "gamma_constraint": null}, "name": "bn5c_branch2b", "inbound_nodes": [[["res5c_branch2b", 0, 0, {}]]]}, {"class_name": "Activation", "config": {"name": "activation_341", "trainable": true, "dtype": "float32", "activation": "relu"}, "name": "activation_341", "inbound_nodes": [[["bn5c_branch2b", 0, 0, {}]]]}, {"class_name": "Conv3D", "config": {"name": "res5c_branch2c", "trainable": true, "dtype": "float32", "filters": 2048, "kernel_size": [1, 1, 1], "strides": [1, 1, 1], "padding": "valid", "data_format": "channels_last", "dilation_rate": [1, 1, 1], "groups": 1, "activation": "linear", "use_bias": true, "kernel_initializer": {"class_name": "HeUniform", "config": {"seed": null}}, "bias_initializer": {"class_name": "Zeros", "config": {}}, "kernel_regularizer": null, "bias_regularizer": null, "activity_regularizer": null, "kernel_constraint": null, "bias_constraint": null}, "name": "res5c_branch2c", "inbound_nodes": [[["activation_341", 0, 0, {}]]]}, {"class_name": "BatchNormalization", "config": {"name": "bn5c_branch2c", "trainable": true, "dtype": "float32", "axis": [3], "momentum": 0.99, "epsilon": 0.001, "center": true, "scale": true, "beta_initializer": {"class_name": "Zeros", "config": {}}, "gamma_initializer": {"class_name": "Ones", "config": {}}, "moving_mean_initializer": {"class_name": "Zeros", "config": {}}, "moving_variance_initializer": {"class_name": "Ones", "config": {}}, "beta_regularizer": null, "gamma_regularizer": null, "beta_constraint": null, "gamma_constraint": null}, "name": "bn5c_branch2c", "inbound_nodes": [[["res5c_branch2c", 0, 0, {}]]]}, {"class_name": "Add", "config": {"name": "add_111", "trainable": true, "dtype": "float32"}, "name": "add_111", "inbound_nodes": [[["bn5c_branch2c", 0, 0, {}], ["activation_339", 0, 0, {}]]]}, {"class_name": "Activation", "config": {"name": "activation_342", "trainable": true, "dtype": "float32", "activation": "relu"}, "name": "activation_342", "inbound_nodes": [[["add_111", 0, 0, {}]]]}, {"class_name": "AveragePooling3D", "config": {"name": "average_pooling3d_6", "trainable": true, "dtype": "float32", "pool_size": [2, 2, 2], "padding": "same", "strides": [2, 2, 2], "data_format": "channels_last"}, "name": "average_pooling3d_6", "inbound_nodes": [[["activation_342", 0, 0, {}]]]}, {"class_name": "Flatten", "config": {"name": "flatten_7", "trainable": true, "dtype": "float32", "data_format": "channels_last"}, "name": "flatten_7", "inbound_nodes": [[["average_pooling3d_6", 0, 0, {}]]]}, {"class_name": "Dense", "config": {"name": "fc1", "trainable": true, "dtype": "float32", "units": 256, "activation": "relu", "use_bias": true, "kernel_initializer": {"class_name": "HeUniform", "config": {"seed": null}}, "bias_initializer": {"class_name": "Zeros", "config": {}}, "kernel_regularizer": null, "bias_regularizer": null, "activity_regularizer": null, "kernel_constraint": null, "bias_constraint": null}, "name": "fc1", "inbound_nodes": [[["flatten_7", 0, 0, {}]]]}, {"class_name": "Dense", "config": {"name": "fc2", "trainable": true, "dtype": "float32", "units": 128, "activation": "relu", "use_bias": true, "kernel_initializer": {"class_name": "HeUniform", "config": {"seed": null}}, "bias_initializer": {"class_name": "Zeros", "config": {}}, "kernel_regularizer": null, "bias_regularizer": null, "activity_regularizer": null, "kernel_constraint": null, "bias_constraint": null}, "name": "fc2", "inbound_nodes": [[["fc1", 0, 0, {}]]]}, {"class_name": "Dense", "config": {"name": "fc3", "trainable": true, "dtype": "float32", "units": 3, "activation": "softmax", "use_bias": true, "kernel_initializer": {"class_name": "HeUniform", "config": {"seed": null}}, "bias_initializer": {"class_name": "Zeros", "config": {}}, "kernel_regularizer": null, "bias_regularizer": null, "activity_regularizer": null, "kernel_constraint": null, "bias_constraint": null}, "name": "fc3", "inbound_nodes": [[["fc2", 0, 0, {}]]]}], "input_layers": [["input_7", 0, 0]], "output_layers": [["fc3", 0, 0]]}}, "training_config": {"loss": "categorical_crossentropy", "metrics": [[{"class_name": "MeanMetricWrapper", "config": {"name": "acc", "dtype": "float32", "fn": "categorical_accuracy"}}]], "weighted_metrics": null, "loss_weights": null, "optimizer_config": {"class_name": "Adam", "config": {"name": "Adam", "learning_rate": {"class_name": "ExponentialDecay", "config": {"initial_learning_rate": 0.001, "decay_steps": 100000, "decay_rate": 0.96, "staircase": true, "name": null}}, "decay": 0.0, "beta_1": 0.8999999761581421, "beta_2": 0.9990000128746033, "epsilon": 1e-07, "amsgrad": false}}}}, "weightsManifest": [{"paths": ["group1-shard1of47.bin", "group1-shard2of47.bin", "group1-shard3of47.bin", "group1-shard4of47.bin", "group1-shard5of47.bin", "group1-shard6of47.bin", "group1-shard7of47.bin", "group1-shard8of47.bin", "group1-shard9of47.bin", "group1-shard10of47.bin", "group1-shard11of47.bin", "group1-shard12of47.bin", "group1-shard13of47.bin", "group1-shard14of47.bin", "group1-shard15of47.bin", "group1-shard16of47.bin", "group1-shard17of47.bin", "group1-shard18of47.bin", "group1-shard19of47.bin", "group1-shard20of47.bin", "group1-shard21of47.bin", "group1-shard22of47.bin", "group1-shard23of47.bin", "group1-shard24of47.bin", "group1-shard25of47.bin", "group1-shard26of47.bin", "group1-shard27of47.bin", "group1-shard28of47.bin", "group1-shard29of47.bin", "group1-shard30of47.bin", "group1-shard31of47.bin", "group1-shard32of47.bin", "group1-shard33of47.bin", "group1-shard34of47.bin", "group1-shard35of47.bin", "group1-shard36of47.bin", "group1-shard37of47.bin", "group1-shard38of47.bin", "group1-shard39of47.bin", "group1-shard40of47.bin", "group1-shard41of47.bin", "group1-shard42of47.bin", "group1-shard43of47.bin", "group1-shard44of47.bin", "group1-shard45of47.bin", "group1-shard46of47.bin", "group1-shard47of47.bin"], "weights": [{"name": "bn2a_branch1/gamma", "shape": [15], "dtype": "float32"}, {"name": "bn2a_branch1/beta", "shape": [15], "dtype": "float32"}, {"name": "bn2a_branch1/moving_mean", "shape": [15], "dtype": "float32"}, {"name": "bn2a_branch1/moving_variance", "shape": [15], "dtype": "float32"}, {"name": "bn2a_branch2a/gamma", "shape": [15], "dtype": "float32"}, {"name": "bn2a_branch2a/beta", "shape": [15], "dtype": "float32"}, {"name": "bn2a_branch2a/moving_mean", "shape": [15], "dtype": "float32"}, {"name": "bn2a_branch2a/moving_variance", "shape": [15], "dtype": "float32"}, {"name": "bn2a_branch2b/gamma", "shape": [15], "dtype": "float32"}, {"name": "bn2a_branch2b/beta", "shape": [15], "dtype": "float32"}, {"name": "bn2a_branch2b/moving_mean", "shape": [15], "dtype": "float32"}, {"name": "bn2a_branch2b/moving_variance", "shape": [15], "dtype": "float32"}, {"name": "bn2a_branch2c/gamma", "shape": [15], "dtype": "float32"}, {"name": "bn2a_branch2c/beta", "shape": [15], "dtype": "float32"}, {"name": "bn2a_branch2c/moving_mean", "shape": [15], "dtype": "float32"}, {"name": "bn2a_branch2c/moving_variance", "shape": [15], "dtype": "float32"}, {"name": "bn2b_branch2a/gamma", "shape": [15], "dtype": "float32"}, {"name": "bn2b_branch2a/beta", "shape": [15], "dtype": "float32"}, {"name": "bn2b_branch2a/moving_mean", "shape": [15], "dtype": "float32"}, {"name": "bn2b_branch2a/moving_variance", "shape": [15], "dtype": "float32"}, {"name": "bn2b_branch2b/gamma", "shape": [15], "dtype": "float32"}, {"name": "bn2b_branch2b/beta", "shape": [15], "dtype": "float32"}, {"name": "bn2b_branch2b/moving_mean", "shape": [15], "dtype": "float32"}, {"name": "bn2b_branch2b/moving_variance", "shape": [15], "dtype": "float32"}, {"name": "bn2b_branch2c/gamma", "shape": [15], "dtype": "float32"}, {"name": "bn2b_branch2c/beta", "shape": [15], "dtype": "float32"}, {"name": "bn2b_branch2c/moving_mean", "shape": [15], "dtype": "float32"}, {"name": "bn2b_branch2c/moving_variance", "shape": [15], "dtype": "float32"}, {"name": "bn2c_branch2a/gamma", "shape": [15], "dtype": "float32"}, {"name": "bn2c_branch2a/beta", "shape": [15], "dtype": "float32"}, {"name": "bn2c_branch2a/moving_mean", "shape": [15], "dtype": "float32"}, {"name": "bn2c_branch2a/moving_variance", "shape": [15], "dtype": "float32"}, {"name": "bn2c_branch2b/gamma", "shape": [15], "dtype": "float32"}, {"name": "bn2c_branch2b/beta", "shape": [15], "dtype": "float32"}, {"name": "bn2c_branch2b/moving_mean", "shape": [15], "dtype": "float32"}, {"name": "bn2c_branch2b/moving_variance", "shape": [15], "dtype": "float32"}, {"name": "bn2c_branch2c/gamma", "shape": [15], "dtype": "float32"}, {"name": "bn2c_branch2c/beta", "shape": [15], "dtype": "float32"}, {"name": "bn2c_branch2c/moving_mean", "shape": [15], "dtype": "float32"}, {"name": "bn2c_branch2c/moving_variance", "shape": [15], "dtype": "float32"}, {"name": "bn3a_branch1/gamma", "shape": [8], "dtype": "float32"}, {"name": "bn3a_branch1/beta", "shape": [8], "dtype": "float32"}, {"name": "bn3a_branch1/moving_mean", "shape": [8], "dtype": "float32"}, {"name": "bn3a_branch1/moving_variance", "shape": [8], "dtype": "float32"}, {"name": "bn3a_branch2a/gamma", "shape": [8], "dtype": "float32"}, {"name": "bn3a_branch2a/beta", "shape": [8], "dtype": "float32"}, {"name": "bn3a_branch2a/moving_mean", "shape": [8], "dtype": "float32"}, {"name": "bn3a_branch2a/moving_variance", "shape": [8], "dtype": "float32"}, {"name": "bn3a_branch2b/gamma", "shape": [8], "dtype": "float32"}, {"name": "bn3a_branch2b/beta", "shape": [8], "dtype": "float32"}, {"name": "bn3a_branch2b/moving_mean", "shape": [8], "dtype": "float32"}, {"name": "bn3a_branch2b/moving_variance", "shape": [8], "dtype": "float32"}, {"name": "bn3a_branch2c/gamma", "shape": [8], "dtype": "float32"}, {"name": "bn3a_branch2c/beta", "shape": [8], "dtype": "float32"}, {"name": "bn3a_branch2c/moving_mean", "shape": [8], "dtype": "float32"}, {"name": "bn3a_branch2c/moving_variance", "shape": [8], "dtype": "float32"}, {"name": "bn3b_branch2a/gamma", "shape": [8], "dtype": "float32"}, {"name": "bn3b_branch2a/beta", "shape": [8], "dtype": "float32"}, {"name": "bn3b_branch2a/moving_mean", "shape": [8], "dtype": "float32"}, {"name": "bn3b_branch2a/moving_variance", "shape": [8], "dtype": "float32"}, {"name": "bn3b_branch2b/gamma", "shape": [8], "dtype": "float32"}, {"name": "bn3b_branch2b/beta", "shape": [8], "dtype": "float32"}, {"name": "bn3b_branch2b/moving_mean", "shape": [8], "dtype": "float32"}, {"name": "bn3b_branch2b/moving_variance", "shape": [8], "dtype": "float32"}, {"name": "bn3b_branch2c/gamma", "shape": [8], "dtype": "float32"}, {"name": "bn3b_branch2c/beta", "shape": [8], "dtype": "float32"}, {"name": "bn3b_branch2c/moving_mean", "shape": [8], "dtype": "float32"}, {"name": "bn3b_branch2c/moving_variance", "shape": [8], "dtype": "float32"}, {"name": "bn3c_branch2a/gamma", "shape": [8], "dtype": "float32"}, {"name": "bn3c_branch2a/beta", "shape": [8], "dtype": "float32"}, {"name": "bn3c_branch2a/moving_mean", "shape": [8], "dtype": "float32"}, {"name": "bn3c_branch2a/moving_variance", "shape": [8], "dtype": "float32"}, {"name": "bn3c_branch2b/gamma", "shape": [8], "dtype": "float32"}, {"name": "bn3c_branch2b/beta", "shape": [8], "dtype": "float32"}, {"name": "bn3c_branch2b/moving_mean", "shape": [8], "dtype": "float32"}, {"name": "bn3c_branch2b/moving_variance", "shape": [8], "dtype": "float32"}, {"name": "bn3c_branch2c/gamma", "shape": [8], "dtype": "float32"}, {"name": "bn3c_branch2c/beta", "shape": [8], "dtype": "float32"}, {"name": "bn3c_branch2c/moving_mean", "shape": [8], "dtype": "float32"}, {"name": "bn3c_branch2c/moving_variance", "shape": [8], "dtype": "float32"}, {"name": "bn3d_branch2a/gamma", "shape": [8], "dtype": "float32"}, {"name": "bn3d_branch2a/beta", "shape": [8], "dtype": "float32"}, {"name": "bn3d_branch2a/moving_mean", "shape": [8], "dtype": "float32"}, {"name": "bn3d_branch2a/moving_variance", "shape": [8], "dtype": "float32"}, {"name": "bn3d_branch2b/gamma", "shape": [8], "dtype": "float32"}, {"name": "bn3d_branch2b/beta", "shape": [8], "dtype": "float32"}, {"name": "bn3d_branch2b/moving_mean", "shape": [8], "dtype": "float32"}, {"name": "bn3d_branch2b/moving_variance", "shape": [8], "dtype": "float32"}, {"name": "bn3d_branch2c/gamma", "shape": [8], "dtype": "float32"}, {"name": "bn3d_branch2c/beta", "shape": [8], "dtype": "float32"}, {"name": "bn3d_branch2c/moving_mean", "shape": [8], "dtype": "float32"}, {"name": "bn3d_branch2c/moving_variance", "shape": [8], "dtype": "float32"}, {"name": "bn4a_branch1/gamma", "shape": [4], "dtype": "float32"}, {"name": "bn4a_branch1/beta", "shape": [4], "dtype": "float32"}, {"name": "bn4a_branch1/moving_mean", "shape": [4], "dtype": "float32"}, {"name": "bn4a_branch1/moving_variance", "shape": [4], "dtype": "float32"}, {"name": "bn4a_branch2a/gamma", "shape": [4], "dtype": "float32"}, {"name": "bn4a_branch2a/beta", "shape": [4], "dtype": "float32"}, {"name": "bn4a_branch2a/moving_mean", "shape": [4], "dtype": "float32"}, {"name": "bn4a_branch2a/moving_variance", "shape": [4], "dtype": "float32"}, {"name": "bn4a_branch2b/gamma", "shape": [4], "dtype": "float32"}, {"name": "bn4a_branch2b/beta", "shape": [4], "dtype": "float32"}, {"name": "bn4a_branch2b/moving_mean", "shape": [4], "dtype": "float32"}, {"name": "bn4a_branch2b/moving_variance", "shape": [4], "dtype": "float32"}, {"name": "bn4a_branch2c/gamma", "shape": [4], "dtype": "float32"}, {"name": "bn4a_branch2c/beta", "shape": [4], "dtype": "float32"}, {"name": "bn4a_branch2c/moving_mean", "shape": [4], "dtype": "float32"}, {"name": "bn4a_branch2c/moving_variance", "shape": [4], "dtype": "float32"}, {"name": "bn4b_branch2a/gamma", "shape": [4], "dtype": "float32"}, {"name": "bn4b_branch2a/beta", "shape": [4], "dtype": "float32"}, {"name": "bn4b_branch2a/moving_mean", "shape": [4], "dtype": "float32"}, {"name": "bn4b_branch2a/moving_variance", "shape": [4], "dtype": "float32"}, {"name": "bn4b_branch2b/gamma", "shape": [4], "dtype": "float32"}, {"name": "bn4b_branch2b/beta", "shape": [4], "dtype": "float32"}, {"name": "bn4b_branch2b/moving_mean", "shape": [4], "dtype": "float32"}, {"name": "bn4b_branch2b/moving_variance", "shape": [4], "dtype": "float32"}, {"name": "bn4b_branch2c/gamma", "shape": [4], "dtype": "float32"}, {"name": "bn4b_branch2c/beta", "shape": [4], "dtype": "float32"}, {"name": "bn4b_branch2c/moving_mean", "shape": [4], "dtype": "float32"}, {"name": "bn4b_branch2c/moving_variance", "shape": [4], "dtype": "float32"}, {"name": "bn4c_branch2a/gamma", "shape": [4], "dtype": "float32"}, {"name": "bn4c_branch2a/beta", "shape": [4], "dtype": "float32"}, {"name": "bn4c_branch2a/moving_mean", "shape": [4], "dtype": "float32"}, {"name": "bn4c_branch2a/moving_variance", "shape": [4], "dtype": "float32"}, {"name": "bn4c_branch2b/gamma", "shape": [4], "dtype": "float32"}, {"name": "bn4c_branch2b/beta", "shape": [4], "dtype": "float32"}, {"name": "bn4c_branch2b/moving_mean", "shape": [4], "dtype": "float32"}, {"name": "bn4c_branch2b/moving_variance", "shape": [4], "dtype": "float32"}, {"name": "bn4c_branch2c/gamma", "shape": [4], "dtype": "float32"}, {"name": "bn4c_branch2c/beta", "shape": [4], "dtype": "float32"}, {"name": "bn4c_branch2c/moving_mean", "shape": [4], "dtype": "float32"}, {"name": "bn4c_branch2c/moving_variance", "shape": [4], "dtype": "float32"}, {"name": "bn4d_branch2a/gamma", "shape": [4], "dtype": "float32"}, {"name": "bn4d_branch2a/beta", "shape": [4], "dtype": "float32"}, {"name": "bn4d_branch2a/moving_mean", "shape": [4], "dtype": "float32"}, {"name": "bn4d_branch2a/moving_variance", "shape": [4], "dtype": "float32"}, {"name": "bn4d_branch2b/gamma", "shape": [4], "dtype": "float32"}, {"name": "bn4d_branch2b/beta", "shape": [4], "dtype": "float32"}, {"name": "bn4d_branch2b/moving_mean", "shape": [4], "dtype": "float32"}, {"name": "bn4d_branch2b/moving_variance", "shape": [4], "dtype": "float32"}, {"name": "bn4d_branch2c/gamma", "shape": [4], "dtype": "float32"}, {"name": "bn4d_branch2c/beta", "shape": [4], "dtype": "float32"}, {"name": "bn4d_branch2c/moving_mean", "shape": [4], "dtype": "float32"}, {"name": "bn4d_branch2c/moving_variance", "shape": [4], "dtype": "float32"}, {"name": "bn4e_branch2a/gamma", "shape": [4], "dtype": "float32"}, {"name": "bn4e_branch2a/beta", "shape": [4], "dtype": "float32"}, {"name": "bn4e_branch2a/moving_mean", "shape": [4], "dtype": "float32"}, {"name": "bn4e_branch2a/moving_variance", "shape": [4], "dtype": "float32"}, {"name": "bn4e_branch2b/gamma", "shape": [4], "dtype": "float32"}, {"name": "bn4e_branch2b/beta", "shape": [4], "dtype": "float32"}, {"name": "bn4e_branch2b/moving_mean", "shape": [4], "dtype": "float32"}, {"name": "bn4e_branch2b/moving_variance", "shape": [4], "dtype": "float32"}, {"name": "bn4e_branch2c/gamma", "shape": [4], "dtype": "float32"}, {"name": "bn4e_branch2c/beta", "shape": [4], "dtype": "float32"}, {"name": "bn4e_branch2c/moving_mean", "shape": [4], "dtype": "float32"}, {"name": "bn4e_branch2c/moving_variance", "shape": [4], "dtype": "float32"}, {"name": "bn4f_branch2a/gamma", "shape": [4], "dtype": "float32"}, {"name": "bn4f_branch2a/beta", "shape": [4], "dtype": "float32"}, {"name": "bn4f_branch2a/moving_mean", "shape": [4], "dtype": "float32"}, {"name": "bn4f_branch2a/moving_variance", "shape": [4], "dtype": "float32"}, {"name": "bn4f_branch2b/gamma", "shape": [4], "dtype": "float32"}, {"name": "bn4f_branch2b/beta", "shape": [4], "dtype": "float32"}, {"name": "bn4f_branch2b/moving_mean", "shape": [4], "dtype": "float32"}, {"name": "bn4f_branch2b/moving_variance", "shape": [4], "dtype": "float32"}, {"name": "bn4f_branch2c/gamma", "shape": [4], "dtype": "float32"}, {"name": "bn4f_branch2c/beta", "shape": [4], "dtype": "float32"}, {"name": "bn4f_branch2c/moving_mean", "shape": [4], "dtype": "float32"}, {"name": "bn4f_branch2c/moving_variance", "shape": [4], "dtype": "float32"}, {"name": "bn5a_branch1/gamma", "shape": [2], "dtype": "float32"}, {"name": "bn5a_branch1/beta", "shape": [2], "dtype": "float32"}, {"name": "bn5a_branch1/moving_mean", "shape": [2], "dtype": "float32"}, {"name": "bn5a_branch1/moving_variance", "shape": [2], "dtype": "float32"}, {"name": "bn5a_branch2a/gamma", "shape": [2], "dtype": "float32"}, {"name": "bn5a_branch2a/beta", "shape": [2], "dtype": "float32"}, {"name": "bn5a_branch2a/moving_mean", "shape": [2], "dtype": "float32"}, {"name": "bn5a_branch2a/moving_variance", "shape": [2], "dtype": "float32"}, {"name": "bn5a_branch2b/gamma", "shape": [2], "dtype": "float32"}, {"name": "bn5a_branch2b/beta", "shape": [2], "dtype": "float32"}, {"name": "bn5a_branch2b/moving_mean", "shape": [2], "dtype": "float32"}, {"name": "bn5a_branch2b/moving_variance", "shape": [2], "dtype": "float32"}, {"name": "bn5a_branch2c/gamma", "shape": [2], "dtype": "float32"}, {"name": "bn5a_branch2c/beta", "shape": [2], "dtype": "float32"}, {"name": "bn5a_branch2c/moving_mean", "shape": [2], "dtype": "float32"}, {"name": "bn5a_branch2c/moving_variance", "shape": [2], "dtype": "float32"}, {"name": "bn5b_branch2a/gamma", "shape": [2], "dtype": "float32"}, {"name": "bn5b_branch2a/beta", "shape": [2], "dtype": "float32"}, {"name": "bn5b_branch2a/moving_mean", "shape": [2], "dtype": "float32"}, {"name": "bn5b_branch2a/moving_variance", "shape": [2], "dtype": "float32"}, {"name": "bn5b_branch2b/gamma", "shape": [2], "dtype": "float32"}, {"name": "bn5b_branch2b/beta", "shape": [2], "dtype": "float32"}, {"name": "bn5b_branch2b/moving_mean", "shape": [2], "dtype": "float32"}, {"name": "bn5b_branch2b/moving_variance", "shape": [2], "dtype": "float32"}, {"name": "bn5b_branch2c/gamma", "shape": [2], "dtype": "float32"}, {"name": "bn5b_branch2c/beta", "shape": [2], "dtype": "float32"}, {"name": "bn5b_branch2c/moving_mean", "shape": [2], "dtype": "float32"}, {"name": "bn5b_branch2c/moving_variance", "shape": [2], "dtype": "float32"}, {"name": "bn5c_branch2a/gamma", "shape": [2], "dtype": "float32"}, {"name": "bn5c_branch2a/beta", "shape": [2], "dtype": "float32"}, {"name": "bn5c_branch2a/moving_mean", "shape": [2], "dtype": "float32"}, {"name": "bn5c_branch2a/moving_variance", "shape": [2], "dtype": "float32"}, {"name": "bn5c_branch2b/gamma", "shape": [2], "dtype": "float32"}, {"name": "bn5c_branch2b/beta", "shape": [2], "dtype": "float32"}, {"name": "bn5c_branch2b/moving_mean", "shape": [2], "dtype": "float32"}, {"name": "bn5c_branch2b/moving_variance", "shape": [2], "dtype": "float32"}, {"name": "bn5c_branch2c/gamma", "shape": [2], "dtype": "float32"}, {"name": "bn5c_branch2c/beta", "shape": [2], "dtype": "float32"}, {"name": "bn5c_branch2c/moving_mean", "shape": [2], "dtype": "float32"}, {"name": "bn5c_branch2c/moving_variance", "shape": [2], "dtype": "float32"}, {"name": "bn_conv1/gamma", "shape": [32], "dtype": "float32"}, {"name": "bn_conv1/beta", "shape": [32], "dtype": "float32"}, {"name": "bn_conv1/moving_mean", "shape": [32], "dtype": "float32"}, {"name": "bn_conv1/moving_variance", "shape": [32], "dtype": "float32"}, {"name": "conv1/kernel", "shape": [7, 7, 7, 1, 64], "dtype": "float32"}, {"name": "conv1/bias", "shape": [64], "dtype": "float32"}, {"name": "fc1/kernel", "shape": [8192, 256], "dtype": "float32"}, {"name": "fc1/bias", "shape": [256], "dtype": "float32"}, {"name": "fc2/kernel", "shape": [256, 128], "dtype": "float32"}, {"name": "fc2/bias", "shape": [128], "dtype": "float32"}, {"name": "fc3/kernel", "shape": [128, 3], "dtype": "float32"}, {"name": "fc3/bias", "shape": [3], "dtype": "float32"}, {"name": "res2a_branch1/kernel", "shape": [1, 1, 1, 64, 256], "dtype": "float32"}, {"name": "res2a_branch1/bias", "shape": [256], "dtype": "float32"}, {"name": "res2a_branch2a/kernel", "shape": [1, 1, 1, 64, 64], "dtype": "float32"}, {"name": "res2a_branch2a/bias", "shape": [64], "dtype": "float32"}, {"name": "res2a_branch2b/kernel", "shape": [3, 3, 3, 64, 64], "dtype": "float32"}, {"name": "res2a_branch2b/bias", "shape": [64], "dtype": "float32"}, {"name": "res2a_branch2c/kernel", "shape": [1, 1, 1, 64, 256], "dtype": "float32"}, {"name": "res2a_branch2c/bias", "shape": [256], "dtype": "float32"}, {"name": "res2b_branch2a/kernel", "shape": [1, 1, 1, 256, 64], "dtype": "float32"}, {"name": "res2b_branch2a/bias", "shape": [64], "dtype": "float32"}, {"name": "res2b_branch2b/kernel", "shape": [3, 3, 3, 64, 64], "dtype": "float32"}, {"name": "res2b_branch2b/bias", "shape": [64], "dtype": "float32"}, {"name": "res2b_branch2c/kernel", "shape": [1, 1, 1, 64, 256], "dtype": "float32"}, {"name": "res2b_branch2c/bias", "shape": [256], "dtype": "float32"}, {"name": "res2c_branch2a/kernel", "shape": [1, 1, 1, 256, 64], "dtype": "float32"}, {"name": "res2c_branch2a/bias", "shape": [64], "dtype": "float32"}, {"name": "res2c_branch2b/kernel", "shape": [3, 3, 3, 64, 64], "dtype": "float32"}, {"name": "res2c_branch2b/bias", "shape": [64], "dtype": "float32"}, {"name": "res2c_branch2c/kernel", "shape": [1, 1, 1, 64, 256], "dtype": "float32"}, {"name": "res2c_branch2c/bias", "shape": [256], "dtype": "float32"}, {"name": "res3a_branch1/kernel", "shape": [1, 1, 1, 256, 512], "dtype": "float32"}, {"name": "res3a_branch1/bias", "shape": [512], "dtype": "float32"}, {"name": "res3a_branch2a/kernel", "shape": [1, 1, 1, 256, 128], "dtype": "float32"}, {"name": "res3a_branch2a/bias", "shape": [128], "dtype": "float32"}, {"name": "res3a_branch2b/kernel", "shape": [3, 3, 3, 128, 128], "dtype": "float32"}, {"name": "res3a_branch2b/bias", "shape": [128], "dtype": "float32"}, {"name": "res3a_branch2c/kernel", "shape": [1, 1, 1, 128, 512], "dtype": "float32"}, {"name": "res3a_branch2c/bias", "shape": [512], "dtype": "float32"}, {"name": "res3b_branch2a/kernel", "shape": [1, 1, 1, 512, 128], "dtype": "float32"}, {"name": "res3b_branch2a/bias", "shape": [128], "dtype": "float32"}, {"name": "res3b_branch2b/kernel", "shape": [3, 3, 3, 128, 128], "dtype": "float32"}, {"name": "res3b_branch2b/bias", "shape": [128], "dtype": "float32"}, {"name": "res3b_branch2c/kernel", "shape": [1, 1, 1, 128, 512], "dtype": "float32"}, {"name": "res3b_branch2c/bias", "shape": [512], "dtype": "float32"}, {"name": "res3c_branch2a/kernel", "shape": [1, 1, 1, 512, 128], "dtype": "float32"}, {"name": "res3c_branch2a/bias", "shape": [128], "dtype": "float32"}, {"name": "res3c_branch2b/kernel", "shape": [3, 3, 3, 128, 128], "dtype": "float32"}, {"name": "res3c_branch2b/bias", "shape": [128], "dtype": "float32"}, {"name": "res3c_branch2c/kernel", "shape": [1, 1, 1, 128, 512], "dtype": "float32"}, {"name": "res3c_branch2c/bias", "shape": [512], "dtype": "float32"}, {"name": "res3d_branch2a/kernel", "shape": [1, 1, 1, 512, 128], "dtype": "float32"}, {"name": "res3d_branch2a/bias", "shape": [128], "dtype": "float32"}, {"name": "res3d_branch2b/kernel", "shape": [3, 3, 3, 128, 128], "dtype": "float32"}, {"name": "res3d_branch2b/bias", "shape": [128], "dtype": "float32"}, {"name": "res3d_branch2c/kernel", "shape": [1, 1, 1, 128, 512], "dtype": "float32"}, {"name": "res3d_branch2c/bias", "shape": [512], "dtype": "float32"}, {"name": "res4a_branch1/kernel", "shape": [1, 1, 1, 512, 1024], "dtype": "float32"}, {"name": "res4a_branch1/bias", "shape": [1024], "dtype": "float32"}, {"name": "res4a_branch2a/kernel", "shape": [1, 1, 1, 512, 256], "dtype": "float32"}, {"name": "res4a_branch2a/bias", "shape": [256], "dtype": "float32"}, {"name": "res4a_branch2b/kernel", "shape": [3, 3, 3, 256, 256], "dtype": "float32"}, {"name": "res4a_branch2b/bias", "shape": [256], "dtype": "float32"}, {"name": "res4a_branch2c/kernel", "shape": [1, 1, 1, 256, 1024], "dtype": "float32"}, {"name": "res4a_branch2c/bias", "shape": [1024], "dtype": "float32"}, {"name": "res4b_branch2a/kernel", "shape": [1, 1, 1, 1024, 256], "dtype": "float32"}, {"name": "res4b_branch2a/bias", "shape": [256], "dtype": "float32"}, {"name": "res4b_branch2b/kernel", "shape": [3, 3, 3, 256, 256], "dtype": "float32"}, {"name": "res4b_branch2b/bias", "shape": [256], "dtype": "float32"}, {"name": "res4b_branch2c/kernel", "shape": [1, 1, 1, 256, 1024], "dtype": "float32"}, {"name": "res4b_branch2c/bias", "shape": [1024], "dtype": "float32"}, {"name": "res4c_branch2a/kernel", "shape": [1, 1, 1, 1024, 256], "dtype": "float32"}, {"name": "res4c_branch2a/bias", "shape": [256], "dtype": "float32"}, {"name": "res4c_branch2b/kernel", "shape": [3, 3, 3, 256, 256], "dtype": "float32"}, {"name": "res4c_branch2b/bias", "shape": [256], "dtype": "float32"}, {"name": "res4c_branch2c/kernel", "shape": [1, 1, 1, 256, 1024], "dtype": "float32"}, {"name": "res4c_branch2c/bias", "shape": [1024], "dtype": "float32"}, {"name": "res4d_branch2a/kernel", "shape": [1, 1, 1, 1024, 256], "dtype": "float32"}, {"name": "res4d_branch2a/bias", "shape": [256], "dtype": "float32"}, {"name": "res4d_branch2b/kernel", "shape": [3, 3, 3, 256, 256], "dtype": "float32"}, {"name": "res4d_branch2b/bias", "shape": [256], "dtype": "float32"}, {"name": "res4d_branch2c/kernel", "shape": [1, 1, 1, 256, 1024], "dtype": "float32"}, {"name": "res4d_branch2c/bias", "shape": [1024], "dtype": "float32"}, {"name": "res4e_branch2a/kernel", "shape": [1, 1, 1, 1024, 256], "dtype": "float32"}, {"name": "res4e_branch2a/bias", "shape": [256], "dtype": "float32"}, {"name": "res4e_branch2b/kernel", "shape": [3, 3, 3, 256, 256], "dtype": "float32"}, {"name": "res4e_branch2b/bias", "shape": [256], "dtype": "float32"}, {"name": "res4e_branch2c/kernel", "shape": [1, 1, 1, 256, 1024], "dtype": "float32"}, {"name": "res4e_branch2c/bias", "shape": [1024], "dtype": "float32"}, {"name": "res4f_branch2a/kernel", "shape": [1, 1, 1, 1024, 256], "dtype": "float32"}, {"name": "res4f_branch2a/bias", "shape": [256], "dtype": "float32"}, {"name": "res4f_branch2b/kernel", "shape": [3, 3, 3, 256, 256], "dtype": "float32"}, {"name": "res4f_branch2b/bias", "shape": [256], "dtype": "float32"}, {"name": "res4f_branch2c/kernel", "shape": [1, 1, 1, 256, 1024], "dtype": "float32"}, {"name": "res4f_branch2c/bias", "shape": [1024], "dtype": "float32"}, {"name": "res5a_branch1/kernel", "shape": [1, 1, 1, 1024, 2048], "dtype": "float32"}, {"name": "res5a_branch1/bias", "shape": [2048], "dtype": "float32"}, {"name": "res5a_branch2a/kernel", "shape": [1, 1, 1, 1024, 512], "dtype": "float32"}, {"name": "res5a_branch2a/bias", "shape": [512], "dtype": "float32"}, {"name": "res5a_branch2b/kernel", "shape": [3, 3, 3, 512, 512], "dtype": "float32"}, {"name": "res5a_branch2b/bias", "shape": [512], "dtype": "float32"}, {"name": "res5a_branch2c/kernel", "shape": [1, 1, 1, 512, 2048], "dtype": "float32"}, {"name": "res5a_branch2c/bias", "shape": [2048], "dtype": "float32"}, {"name": "res5b_branch2a/kernel", "shape": [1, 1, 1, 2048, 512], "dtype": "float32"}, {"name": "res5b_branch2a/bias", "shape": [512], "dtype": "float32"}, {"name": "res5b_branch2b/kernel", "shape": [3, 3, 3, 512, 512], "dtype": "float32"}, {"name": "res5b_branch2b/bias", "shape": [512], "dtype": "float32"}, {"name": "res5b_branch2c/kernel", "shape": [1, 1, 1, 512, 2048], "dtype": "float32"}, {"name": "res5b_branch2c/bias", "shape": [2048], "dtype": "float32"}, {"name": "res5c_branch2a/kernel", "shape": [1, 1, 1, 2048, 512], "dtype": "float32"}, {"name": "res5c_branch2a/bias", "shape": [512], "dtype": "float32"}, {"name": "res5c_branch2b/kernel", "shape": [3, 3, 3, 512, 512], "dtype": "float32"}, {"name": "res5c_branch2b/bias", "shape": [512], "dtype": "float32"}, {"name": "res5c_branch2c/kernel", "shape": [1, 1, 1, 512, 2048], "dtype": "float32"}, {"name": "res5c_branch2c/bias", "shape": [2048], "dtype": "float32"}]}]}